models/model_no_TransferLearning.pth (torch, 213949 bytes, 12 tensors)

weight f4 [6, 1, 3, 3]
0	0xbe178a14	-0.14798766
1	0xbd0f7b60	-0.03502977
2	0x3f138659	0.57626873
3	0x3ee0560e	0.43815655
4	0x3ebbeb89	0.36703137
5	0x3f1c65c9	0.6109281
6	0xbeeefba7	-0.4667637
7	0xbe3e1e1e	-0.18566176
8	0xbe00ee58	-0.12590921
9	0xbbf2654b	-0.007397329
10	0x3e1325e6	0.14369926
11	0xbdd91d1c	-0.10601255
12	0x3d9a6f15	0.075407185
13	0x3e205bc3	0.15660004
14	0xbe2e3e25	-0.17015894
15	0x3dc0471a	0.093885615
16	0xbd066169	-0.03280774
17	0x3c1333e9	0.008984544
18	0x3deea792	0.11653055
19	0x3e817ecc	0.2529205
20	0x3f0bf56b	0.54671353
21	0xbe4c6151	-0.19958998
22	0xbeb4a049	-0.35278538
23	0xbe1d8691	-0.15383364
24	0xbeb815b5	-0.3595406
25	0xbe706689	-0.23476614
26	0xbdada333	-0.084783934
27	0x3f48bae9	0.784102
28	0x3e96d85a	0.29461938
29	0xbe0761d7	-0.13220917
30	0x3e7e7f3f	0.24853228
31	0x3e88800b	0.2666019
32	0x3e4f1e10	0.20226312
33	0x3ca05726	0.019572806
34	0xbe655820	-0.22396898
35	0x3eb62e46	0.3558218
36	0x3f16abe7	0.5885605
37	0x3dd80413	0.10547652
38	0xbe8ef4de	-0.27921194
39	0x3f1e5e3f	0.6186256
40	0xbdc88cf1	-0.097925074
41	0x3e5804ad	0.21095534
42	0xbeb56e02	-0.35435492
43	0xbe34b5dc	-0.17647499
44	0x3eac395f	0.3363752
45	0x3dac56ff	0.08415031
46	0x3e23d096	0.15997538
47	0xbe9b8673	-0.30376014
48	0xbe1dfc8b	-0.15428369
49	0xbe83b2a7	-0.25722238
50	0xbf00be4a	-0.5029036
51	0x3ece2667	0.40263674
52	0xbd054b00	-0.03254223
53	0xbf05b45a	-0.5222832

bias f4 [6]
0	0xbe8b1b0f	-0.27169082
1	0xbe8b43ca	-0.27200156
2	0xbe92d393	-0.28677043
3	0xbecbbf0a	-0.3979419
4	0xbd4d2510	-0.050084174
5	0xbb1803c0	-0.0023195595

weight f4 [10, 6, 3, 3]
0	0xbef693b6	-0.4815957
1	0xbf37ac57	-0.71747345
2	0x3e5d2951	0.21597792
3	0xbe04173a	-0.12899485
4	0xbd064f62	-0.03279055
5	0x3ea3d7c5	0.32000557
6	0xbd4db7c4	-0.05022408
7	0x3d5551d4	0.05207999
8	0x3e921a68	0.2853577
9	0xbf0f2f1d	-0.55931264
10	0xbef310c8	-0.4747374
11	0xbe3c8e9c	-0.18413776
12	0xbdcef308	-0.10104948
13	0xbd7b69bb	-0.06138013
14	0x3e191913	0.14950971
15	0x3e3cecd5	0.18449719
16	0x3e8eafbb	0.27868447
17	0x3e39c975	0.18143256
18	0xbe07fc00	-0.13279724
19	0xbe490f2c	-0.19634694
20	0x3ea882f5	0.32912412
21	0x3daffb0b	0.085928045
22	0xbeb64492	-0.3559919
23	0x3e9b1926	0.30292624
24	0x3dc00430	0.09375799
25	0x3e908c01	0.28231815
26	0x3f122213	0.57083243
27	0xbefe7fb1	-0.49706796
28	0xbec9fb5d	-0.39449587
29	0xbdfd35cc	-0.123637766
30	0xbed076c7	-0.4071562
31	0xbdf0a3ac	-0.11749968
32	0x3e588c4d	0.2114727
33	0x3e29b1f3	0.16571788
34	0x3e69ca6e	0.22831127
35	0x3ebb6802	0.3660279
36	0xbf073a28	-0.52823114
37	0x3cdc6fd4	0.026908793
38	0x3e50aafd	0.20377727
39	0x3e3f01d0	0.18653035
40	0x3ea6b725	0.32561603
41	0xbd94e0b7	-0.072694235
42	0x3ec8db4a	0.39229804
43	0xbee72664	-0.45146477
44	0xbe12fcce	-0.1435425
45	0x3f13be69	0.5771242
46	0xbd34d10d	-0.04414468
47	0xbe81dcd4	-0.2536379
48	0x3f0877cf	0.53307813
49	0xbee68240	-0.45021248
50	0xbeaef41e	-0.34170622
51	0x3e5e008f	0.216799
52	0xbf19ae13	-0.6003124
53	0xbe7b76ab	-0.24556987
54	0x3c633c99	0.013869428
55	0xbe49b22b	-0.19696872
56	0xbea947f3	-0.33062705
57	0x3dae2949	0.08503968
58	0xbe5b379a	-0.21407929
59	0xbe8b888c	-0.27252614
60	0xbeac2d88	-0.33628488
61	0xbda5f7b3	-0.081038855
62	0xbece4f27	-0.40294763
63	0x3d704b51	0.058665577
64	0x3d1a1b48	0.037623674
65	0xbe13ef42	-0.14446738
66	0x3d4a3baf	0.049373325
67	0xbe82fb25	-0.25582233
68	0xbe7e2bc1	-0.24821378
69	0xbe54ae33	-0.20769577
70	0xbe8174c2	-0.25284392
71	0xbdf1ee44	-0.11813024
72	0x3c405694	0.011739392
73	0xbe614759	-0.21999873
74	0xbdc0b426	-0.094093606
75	0x3e8b42f7	0.27199528
76	0xbf08450c	-0.5323036
77	0xbf23baae	-0.63956726
78	0xbe273c86	-0.16331682
79	0xbe802e2c	-0.25035226
80	0xbed2fab4	-0.41206896
81	0x3d59cc9c	0.053173646
82	0xbdecc075	-0.11560146
83	0xbecdcc38	-0.4019487
84	0x3e5fdc99	0.21861495
85	0xbc7b221e	-0.015327958
86	0xbe868b12	-0.26277977
87	0xbeef2bfb	-0.46713242
88	0xbe34c17c	-0.17651933
89	0xbe2ad0fe	-0.16681287
90	0x3ea7e770	0.3279376
91	0x3eafbf6d	0.34325734
92	0xbe20efa8	-0.15716422
93	0x3d93232f	0.07184445
94	0x3e941d9a	0.28928834
95	0xbe7b836c	-0.24561852
96	0xbf195439	-0.5989414
97	0xbeb6de20	-0.35716343
98	0xbec0dde1	-0.3766928
99	0xbe33a917	-0.17544971
100	0x3d7c834c	0.061648652
101	0xbd658f44	-0.056044832
102	0x3aa001be	0.001220755
103	0x3e08f8f2	0.13376215
104	0xbe2335ec	-0.15938538
105	0xbe339ebf	-0.17541026
106	0xbcb8076e	-0.02246448
107	0x3de353f9	0.11100001
108	0x3d87a1ff	0.06622695
109	0xbe464da7	-0.1936556
110	0xbd7de0ba	-0.061981894
111	0xbe88ff31	-0.26757196
112	0xbe6e5fa0	-0.23278666
113	0xbd59b645	-0.05315234
114	0xbe0d6b25	-0.13810404
115	0xbe51b73b	-0.20480053
116	0xbd10335e	-0.035205238
117	0xbe3e8772	-0.18606356
118	0xbdb97adb	-0.09056636
119	0x3deecebd	0.11660526
120	0xbd90aef7	-0.07064622
121	0xbe6dc275	-0.2321871
122	0xbdec4c60	-0.11538005
123	0xbd224e67	-0.03962555
124	0xbde4d01b	-0.111725055
125	0xbcc76320	-0.024339259
126	0xbe8a6f12	-0.27037865
127	0xbe79bbc2	-0.2438803
128	0xbce5722e	-0.028008547
129	0xbe116d2d	-0.14201804
130	0xbe8dc92a	-0.27692538
131	0xbe7884fc	-0.2426948
132	0xbdf93f05	-0.12170223
133	0xbe2a63d0	-0.16639638
134	0xbd8445f8	-0.06458658
135	0xbd86410f	-0.06555378
136	0xbcc09591	-0.023508819
137	0xbd92fcb6	-0.07177107
138	0x3c3cbfb5	0.011520316
139	0x3db06285	0.08612541
140	0xbe5ecd7b	-0.21758072
141	0xbd6919fe	-0.056909554
142	0xbd44a7e4	-0.048011675
143	0xbddaa3ab	-0.106757484
144	0xbd35aad3	-0.044352364
145	0xbbf81c5e	-0.007571741
146	0xbdc6c400	-0.09705353
147	0xbd94fc46	-0.0727468
148	0x3d598139	0.053101752
149	0xbe570747	-0.2099887
150	0xbe21f961	-0.15817787
151	0xbd1f1245	-0.038835783
152	0x3cf73370	0.030175894
153	0xbe15667a	-0.14589873
154	0xbdfadb7b	-0.12248894
155	0xbdf2331a	-0.11826153
156	0xbe921b9f	-0.28536698
157	0xbe8cf27b	-0.27528748
158	0xbe484ce2	-0.19560578
159	0xbe9e1957	-0.30878708
160	0xbd40be02	-0.047056206
161	0xbe039ccb	-0.1285278
162	0xbd216030	-0.039398372
163	0x3eb9e2a7	0.36305735
164	0x3a092ad4	0.0005232517
165	0xbdd76409	-0.10517127
166	0x3e332cba	0.1749753
167	0x3e5d7da6	0.21629962
168	0x3dc67385	0.09690002
169	0xbe994c0d	-0.29940835
170	0x3a171032	0.0005762606
171	0xbb99e59f	-0.0046965624
172	0x3e9b7536	0.30362862
173	0x3dc95113	0.09829917
174	0x3d76b2b1	0.060229007
175	0x3d6d34c4	0.05791165
176	0xbd777f7d	-0.060424317
177	0x3e839f3c	0.25707424
178	0x3c859cf8	0.0163102
179	0xbe15efc9	-0.14642252
180	0x3ea50b1d	0.3223504
181	0x3eff5ad5	0.49873987
182	0x3e6b212e	0.22961876
183	0xbc721114	-0.01477458
184	0x3f0117f7	0.5042719
185	0x3f0a6039	0.54053074
186	0x3f0eebc2	0.5582849
187	0x3e19ee43	0.15032296
188	0x3eb60d79	0.35557154
189	0xbe0e48de	-0.13894984
190	0x3e05a757	0.13052116
191	0x3ee5ea7c	0.4490546
192	0xbf2b9c97	-0.6703581
193	0xbce21359	-0.027597116
194	0x3c7cf7b8	0.01543992
195	0x3d36c6fc	0.04462336
196	0x3e8fd869	0.28094795
197	0xbef00934	-0.4688202
198	0xbf1bfc28	-0.60931635
199	0x3ca4124b	0.020028254
200	0x3eadb7c8	0.33929276
201	0xbf227f4f	-0.6347551
202	0x3ef1c7bd	0.472227
203	0x3e82ed38	0.2557161
204	0x3f52ccdd	0.82343847
205	0x3ef84860	0.48492718
206	0xbe1fdabb	-0.15610783
207	0xbf2309c3	-0.6368677
208	0xbe665202	-0.22492221
209	0xbe95f6d8	-0.2928989
210	0xbf2860e5	-0.6577285
211	0xbeb7ae00	-0.3587494
212	0xbea86970	-0.32892942
213	0xbdc18998	-0.09450072
214	0xbec582cd	-0.38576356
215	0xbe3713dc	-0.1787867
216	0x3d98fb2e	0.07469784
217	0x3eacb2ab	0.33730063
218	0x3e453a88	0.19260609
219	0xbe2792f5	-0.16364653
220	0x3eccb4b5	0.3998162
221	0x3b9873e7	0.0046524885
222	0xbf047e28	-0.51755
223	0xbef65cba	-0.4811762
224	0xbe02dea9	-0.1278025
225	0xbcd2793e	-0.025692578
226	0x3dfdeb95	0.12398449
227	0x3e1580ed	0.14599963
228	0xbd3c46d9	-0.045966003
229	0xbd0b2e51	-0.033979718
230	0x3e1775de	0.14791057
231	0xbde35668	-0.11100465
232	0x3c0bdef6	0.008537045
233	0xbe2e0291	-0.16993167
234	0x3ee6901e	0.45031828
235	0x3f08827a	0.5332409
236	0x3db34df6	0.08755104
237	0xbc36d66f	-0.011159523
238	0x3ef91f2a	0.4865659
239	0x3ef14199	0.4712036
240	0xbe8c5fda	-0.2741688
241	0xbea5f436	-0.3241288
242	0x3eb60965	0.35554042
243	0x3db153f8	0.08658594
244	0x3eec99d5	0.46211115
245	0x3ecc31f8	0.39881873
246	0x3d8d9841	0.06913806
247	0xbd0ff27e	-0.035143368
248	0x3e6dfed1	0.23241736
249	0xbe48803c	-0.19580168
250	0xbe877be0	-0.26461697
251	0xbe278631	-0.16359784
252	0xbf14fb87	-0.581963
253	0x3f09a9b6	0.53774583
254	0x3e9ab8b4	0.30219042
255	0xbe3d3176	-0.18475899

bias f4 [10]
0	0x3e031194	0.12799674
1	0xbe81f06f	-0.2537875
2	0xbd78f69d	-0.060782064
3	0xbeedb6b6	-0.4642846
4	0xbef6d2e8	-0.48207784
5	0x3c73cdd9	0.014880621
6	0xbd13f51b	-0.036122423
7	0xbe45bd8c	-0.19310588
8	0x3d0f0ae7	0.034922507
9	0xbe073833	-0.13205032

weight f4 [5, 10, 3, 3]
0	0xbe640d26	-0.2227064
1	0xbe8692e1	-0.26283935
2	0xbde8be3b	-0.113644086
3	0xbeb67e55	-0.3564326
4	0xbe4c37f6	-0.19943222
5	0xbeab44de	-0.3345098
6	0xbe496345	-0.19666775
7	0xbe682ba8	-0.22672904
8	0xbe826674	-0.2546879
9	0x3ec725c3	0.38895997
10	0xbe58119b	-0.21100466
11	0xbe350e45	-0.17681225
12	0xbe56e257	-0.2098478
13	0xbdd55118	-0.10415858
14	0xbea90437	-0.33011028
15	0xbe63b9ac	-0.22238797
16	0xbd978a11	-0.07399381
17	0xbe82a989	-0.2551997
18	0x3d22899c	0.039682016
19	0xbdf6653c	-0.12031028
20	0x3d4c7936	0.049920283
21	0xbdcbbea4	-0.09948471
22	0xbb53a10b	-0.0032292034
23	0xbbad2487	-0.0052838954
24	0xbd0cff4e	-0.034423165
25	0xbda9c28e	-0.082890615
26	0x3d81b96e	0.06334196
27	0xbe5e7368	-0.21723711
28	0xbdbffe37	-0.093746595
29	0xbdded7cb	-0.10881003
30	0xbef9aa3b	-0.48762688
31	0xbe9d4010	-0.30712938
32	0xbe57b7cf	-0.21066211
33	0xbe205e7a	-0.1566104
34	0xbe91c8b0	-0.28473425
35	0xbee4414b	-0.44581065
36	0xbeda46eb	-0.4263223
37	0xbeb741cb	-0.35792384
38	0xbed25769	-0.41082314
39	0xbec71f15	-0.388909
40	0xbed75323	-0.42055616
41	0xbf007b34	-0.50187993
42	0xbd8292e9	-0.06375677
43	0xbec42078	-0.38306022
44	0xbf1363bd	-0.57574064
45	0xbdadffa0	-0.08496022
46	0xbecee90a	-0.4041217
47	0xbf036db4	-0.5133927
48	0xbf16c93d	-0.58900815
49	0xbe8f79ca	-0.28022605
50	0xbf1998ed	-0.5999897
51	0xbeeb282b	-0.45929083
52	0xbdf1860c	-0.117931455
53	0xbf2c36de	-0.6727122
54	0xbe4c72ec	-0.19965714
55	0x3d0bfb2a	0.034175076
56	0xbe8a86cc	-0.27055967
57	0x3e44e1f4	0.1922682
58	0xbdd05a48	-0.1017347
59	0xbe06f8d0	-0.13180852
60	0x3d89349f	0.0669949
61	0xbcd2e8a7	-0.025745703
62	0x3d65c68d	0.056097556
63	0x3c314409	0.0108194435
64	0x3e53cd3b	0.20683758
65	0x3f353d48	0.7079663
66	0x3da94e03	0.08266833
67	0xbec74429	-0.3891919
68	0xbe0547ab	-0.1301562
69	0xbd2d6b8d	-0.042338897
70	0x39ed22ff	0.00045230237
71	0x3e87d912	0.265328
72	0xbf237393	-0.6384823
73	0xbf1a9171	-0.60378176
74	0xbf0ef834	-0.5584748
75	0xbf27723f	-0.654087
76	0xbf06c044	-0.52637124
77	0xbf26a117	-0.65089554
78	0xbed0eccb	-0.4080566
79	0xbf0cdb0b	-0.55021733
80	0xbf27e6a6	-0.65586317
81	0xbec4120d	-0.38295022
82	0xbee22147	-0.44166014
83	0xbeac6ec8	-0.3367827
84	0xbe824bfc	-0.25448596
85	0xbe76d39a	-0.24104157
86	0xbedf6da3	-0.43638334
87	0xbe76817f	-0.24072836
88	0xbea3ef93	-0.32018718
89	0xbe915c1f	-0.28390595
90	0xbe51dc20	-0.20494127
91	0xbe17358e	-0.14766523
92	0xbe1d6001	-0.15368654
93	0x3c6aa7e2	0.014322253
94	0xbe357488	-0.17720234
95	0xbe3c7ea8	-0.1840769
96	0x3cbee801	0.023303987
97	0x3d01e4c4	0.03171231
98	0x3d27ffb9	0.04101536
99	0xbe0ebe53	-0.1393979
100	0xbe49ce49	-0.19707598
101	0x3db57531	0.08860243
102	0xbdb26f56	-0.08712642
103	0xbd754e05	-0.05988886
104	0xbd4bfd47	-0.04980209
105	0xbe6e7452	-0.2328656
106	0xbddc5c07	-0.1075974
107	0x3dedc3a3	0.1160958
108	0xbb2561f5	-0.002523539
109	0xbd949a6b	-0.072560154
110	0xbd23a9bb	-0.03995679
111	0xbd172441	-0.03689981
112	0xbd8bcc3f	-0.06826066
113	0xbd86df70	-0.06585586
114	0x3d2594ae	0.040424995
115	0xbde45be7	-0.111503415
116	0x3d32fbd3	0.04369719
117	0x3ca2c04e	0.019867089
118	0x3946b029	0.00018948376
119	0xbde9105b	-0.11380073
120	0x3e0e027a	0.13868132
121	0x3dddd545	0.108316936
122	0xbc2ca0e5	-0.010536407
123	0xbee225b7	-0.441694
124	0xbed9b8f9	-0.42523935
125	0xbeeab82e	-0.45843643
126	0xbea5765d	-0.32316867
127	0xbec785a9	-0.38969162
128	0xbd9ec4da	-0.0775239
129	0xbe864aa6	-0.26228827
130	0xbe93c364	-0.2886001
131	0xbeab2970	-0.33430052
132	0xbde4c4dd	-0.11170361
133	0xbe3b9cc0	-0.18321514
134	0xbe76d06f	-0.24102949
135	0xbe1abd44	-0.15111262
136	0xbdb66b92	-0.08907236
137	0xbdfa38b7	-0.12217849
138	0xbe05ece7	-0.13078652
139	0xbdd52e95	-0.104092754
140	0xbe0e9e9a	-0.13927689
141	0xbdc9f087	-0.0986033
142	0x3c2860cb	0.0102769835
143	0xbe4988d1	-0.19681098
144	0x3e2349d3	0.1594613
145	0xbcb58de8	-0.022162393
146	0x3c0fcff1	0.008777604
147	0x3d9c4495	0.076302685
148	0x3dbd6576	0.09247868
149	0xbd637abe	-0.055536978
150	0x3da00c61	0.07814861
151	0xbdb0f5ed	-0.086406566
152	0xbd48c22b	-0.049013298
153	0x3c869d0b	0.016432306
154	0xbc93c79a	-0.018039513
155	0xbd766508	-0.060154945
156	0xbe032905	-0.12808616
157	0x3d104fbc	0.03523229
158	0xbdcaaaff	-0.09895896
159	0x3c14ea94	0.009089131
160	0xbc8a7a6f	-0.016904084
161	0xbdcad895	-0.09904591
162	0xbe612234	-0.21985704
163	0xbeaf5eff	-0.34252164
164	0xbe6eb052	-0.23309448
165	0xbe89a7d0	-0.26885843
166	0xbe909136	-0.28235787
167	0xbed2d837	-0.41180584
168	0xbdf6172e	-0.1201614
169	0xbe610ebf	-0.21978281
170	0xbe08fd45	-0.13377865
171	0xbe14153f	-0.1446123
172	0xbe57c236	-0.2107018
173	0xbe823886	-0.2543375
174	0xbe021582	-0.12703517
175	0xbc399197	-0.011326215
176	0xbe51b6ef	-0.2047994
177	0xbe502970	-0.20328307
178	0xbe55b753	-0.20870714
179	0xbde1c3ac	-0.110236496
180	0x3ee05992	0.43818337
181	0x3eb4c107	0.35303518
182	0x3e9a3ecc	0.30126035
183	0x3da6f775	0.081526674
184	0xbc783154	-0.0151484795
185	0xbedcc102	-0.43116003
186	0xbe96c713	-0.29448757
187	0xbe872291	-0.2639356
188	0xbe51eaaa	-0.20499673
189	0xbddf3e27	-0.109005265
190	0x3eaf71db	0.34266552
191	0x3ea3efa2	0.32018763
192	0xbe741705	-0.23836906
193	0xbe1ddb82	-0.15415767
194	0xbe0de801	-0.13858034
195	0xbe21f551	-0.15816237
196	0x3e73b54a	0.23799625
197	0xbd89db0f	-0.06731235
198	0x3e124bb4	0.14286691
199	0xbc9f20b3	-0.019424772
200	0xbe37bb19	-0.17942466
201	0x3d8d0251	0.068852074
202	0x3e148cbe	0.14506814
203	0x3de8a1f0	0.11359012
204	0x3e09951d	0.13435788
205	0x3ddc041e	0.10742973
206	0x3dcc8eb0	0.09988153
207	0xbdbdeaa6	-0.09273271
208	0x3d31a9c8	0.043374807
209	0xbd98d318	-0.07462138
210	0x3d5d65b6	0.054052077
211	0xbd53d9b2	-0.051721282
212	0xbe225373	-0.15852146
213	0x3e0ad88a	0.13559166
214	0x3dd13e21	0.10216928
215	0xbe847ad7	-0.2587497
216	0x3d054e18	0.03254518
217	0x3ec69f64	0.3879348
218	0x3ddea9f5	0.108722605
219	0x3e1f43ff	0.15553282
220	0xbb8117a1	-0.0039395844
221	0xbe597518	-0.21236074
222	0xbcc069b6	-0.023487907
223	0x3bc06e38	0.005872514
224	0x3ba16c82	0.004926265
225	0x3eb8f2f4	0.3612286
226	0x3eb0c205	0.34523025
227	0x3e84ba54	0.25923407
228	0xbe8c0d8c	-0.27354085
229	0xbecc0901	-0.3985062
230	0xbdfe281c	-0.12409994
231	0xbeff2b93	-0.49837932
232	0xbeac1533	-0.33609924
233	0xbe9589f6	-0.29206818
234	0x3dc1905e	0.09451364
235	0x3d9678d5	0.07347266
236	0xbdd44aa6	-0.103658006
237	0xbd018ce6	-0.03162851
238	0xbd48a91c	-0.0489894
239	0x3d39cc27	0.04536071
240	0x3d1b9f88	0.037993938
241	0x3d818059	0.063233085
242	0x3dd32ba4	0.10311058
243	0xbecf6c48	-0.405123
244	0x3e348c1e	0.17631575
245	0x3e7920eb	0.24328963
246	0x3dd934ef	0.106057994
247	0xbc1717ed	-0.009222013
248	0x3ea9e92d	0.33185712
249	0x3e22fe41	0.15917303
250	0x3ea05c8c	0.31320608
251	0x3df8cad0	0.121480584
252	0x3ddbf9cf	0.107410066
253	0x3f1e3760	0.61803246
254	0x3f08a81b	0.5338151
255	0x3e8b032e	0.27150863

bias f4 [5]
0	0x3d61c71e	0.055121534
1	0xbe0e8951	-0.1391957
2	0xbe0ddfef	-0.13854955
3	0x3d39e402	0.04538346
4	0xbd404f92	-0.046950884

weight f4 [50, 980]
0	0xbd928f95	-0.07156292
1	0x3c8383c2	0.016054038
2	0x3dcf5f6b	0.101256214
3	0xbd8178bb	-0.06321856
4	0x3cef0e4d	0.029181624
5	0xbe16ee3f	-0.14739321
6	0xbcfb4729	-0.03067358
7	0xbc282ede	-0.01026508
8	0xbcf3baf9	-0.029752241
9	0xbd1427f6	-0.036170922
10	0xbd008607	-0.03137782
11	0x3ca101be	0.019654151
12	0xbdb7b4d9	-0.08970041
13	0xbc7793ea	-0.015110949
14	0xbc8e8b94	-0.01740054
15	0x3caa346e	0.020776954
16	0x3d5a1b5d	0.053248752
17	0x3ce02fb0	0.02736649
18	0xbcd6600a	-0.026168842
19	0x3de37ff4	0.111083895
20	0xbd1ed623	-0.038778435
21	0xbd0b52a5	-0.034014363
22	0xbd187d15	-0.037228663
23	0xbc12f58e	-0.008969678
24	0xbcd9a0ef	-0.026565997
25	0x3d426243	0.04745699
26	0x3d58ab42	0.0528977
27	0x3c9fb00e	0.01949313
28	0xbb643cc9	-0.003482627
29	0x3c8e9dd6	0.017409246
30	0x3cc47e84	0.023986109
31	0xbd0c04ae	-0.03418415
32	0xbd07aa14	-0.033121184
33	0xbd32d6f1	-0.043662015
34	0xbce0684c	-0.027393483
35	0xbcdd138a	-0.026986856
36	0xbca3e4ca	-0.020006556
37	0xbc09c86a	-0.008409599
38	0xbd014188	-0.031556636
39	0xbd7cc370	-0.06170982
40	0xbc355588	-0.0110677555
41	0x3b892483	0.0041852607
42	0xbc5e377e	-0.013563035
43	0x3d6f3b01	0.05840588
44	0xbd08c9a5	-0.03339543
45	0x3b8e1d32	0.0043369764
46	0xbd117686	-0.035513423
47	0xbca3e1b6	-0.020005088
48	0x3c17625a	0.009239757
49	0x3c9559a4	0.01823122
50	0xbcfadda0	-0.030623257
51	0xbd8ede16	-0.06975953
52	0xbcc5e837	-0.02415858
53	0x3c17c99d	0.009264377
54	0xbc829395	-0.015939513
55	0x3cb44b69	0.022008615
56	0x3c527c2a	0.012846986
57	0x3cd0b11c	0.025475077
58	0xbc735417	-0.014851592
59	0xbd06e1b1	-0.03293008
60	0xbcef159a	-0.029185105
61	0xbd0389b2	-0.03211374
62	0x3d64cae9	0.055857573
63	0xbcd5e73c	-0.026111238
64	0xbc89bf5c	-0.01681488
65	0xbb0f5aa8	-0.0021874104
66	0xbd303ebd	-0.043028582
67	0xbd3d1925	-0.046166558
68	0x3c46de65	0.012137984
69	0xbb4ef760	-0.0031580552
70	0xbcd0635d	-0.025438005
71	0xbca5c924	-0.020237513
72	0xbd31574d	-0.043296147
73	0xbd10019b	-0.03515778
74	0xbc543159	-0.0129512185
75	0xbd59a9a3	-0.053140294
76	0xbdb7e436	-0.08979075
77	0xbd5069cb	-0.050882142
78	0xbd6bace2	-0.05753792
79	0xbd5dc6e9	-0.054144774
80	0x3c96d369	0.018411355
81	0x3d500f0e	0.050795607
82	0xbb3c8741	-0.002876714
83	0x3d804ebe	0.06265019
84	0x3c021d51	0.00794156
85	0xbd2eafbd	-0.042648066
86	0xbd60cc30	-0.05488223
87	0xbc82cefd	-0.01596784
88	0xbc360147	-0.011108703
89	0xbcc64106	-0.024200927
90	0xbda73a20	-0.08165383
91	0x3b100805	0.0021977436
92	0xbd2050aa	-0.039139427
93	0xbc5aed2c	-0.01336221
94	0xbcc647ab	-0.024204096
95	0x3d769441	0.06019998
96	0x3ca9449d	0.0206626
97	0xbbde30c9	-0.006780718
98	0x3b0a0540	0.0021060258
99	0x3c53b9c1	0.012922705
100	0xbd3ee58c	-0.04660563
101	0xbcc1c7fe	-0.023654934
102	0xbc3a4ad7	-0.011370382
103	0x3bffc2c8	0.007805202
104	0xbd5d4834	-0.054023936
105	0x3bf28d4f	0.007402099
106	0xbd8ac303	-0.06775477
107	0xbd592cab	-0.053021114
108	0x3d6c31ae	0.057664566
109	0x3d82e4b6	0.063912794
110	0xbd12326f	-0.03569263
111	0xbc582a97	-0.013193748
112	0xbd226a42	-0.039652117
113	0xbd6c3ea0	-0.05767691
114	0xbd14e146	-0.03634765
115	0xbd5b9ff8	-0.053619355
116	0x3ccdca40	0.025120854
117	0xbd93582a	-0.0719455
118	0xbda501fc	-0.08057019
119	0x3d05b1f4	0.032640412
120	0xbd27afda	-0.04093919
121	0xbd86fd02	-0.06591226
122	0xbcddc1d7	-0.02706997
123	0x3a9acfce	0.0011811198
124	0x3c10c110	0.008835092
125	0x3c9b8d62	0.018988315
126	0xbc9c0ed1	-0.019050034
127	0xbd79be2a	-0.06097237
128	0xbcab0ce8	-0.020880178
129	0xbcce88ab	-0.025211653
130	0xbcbc68c4	-0.022999175
131	0xbd1559f8	-0.036462754
132	0xbdb4dde8	-0.08831388
133	0x3d78c952	0.06073887
134	0xbd7ce610	-0.061742842
135	0xbd1ed5ee	-0.038778238
136	0xbc827ff1	-0.015930148
137	0xbc52396f	-0.012831076
138	0x3c9777bb	0.01848971
139	0x3cafd98d	0.021466041
140	0x3c2da393	0.010598081
141	0xbd25826d	-0.040407587
142	0xbd73c469	-0.059513483
143	0xbb257d6f	-0.0025251766
144	0xbc946f36	-0.018119436
145	0xbd75a8eb	-0.059975546
146	0x3c443dff	0.011977672
147	0x3cd8e4d2	0.026476298
148	0xbcb56fb1	-0.022147985
149	0x3c869ddd	0.016432697
150	0xbd33bb50	-0.043879807
151	0x3c31502e	0.010822339
152	0xbd021db9	-0.031766627
153	0x3b6ba547	0.0035956667
154	0xbc8e4845	-0.017368445
155	0x3c05d4c4	0.008168403
156	0xbc3398f1	-0.010961757
157	0x3c24965c	0.010045614
158	0xbcf60c8a	-0.030035276
159	0x3cce253c	0.02516424
160	0x3d145cb0	0.036221206
161	0x3c9330f3	0.017967677
162	0xbc8e4250	-0.017365605
163	0xbcc3e098	-0.023910806
164	0xbc820112	-0.015869651
165	0x3d40f3ea	0.047107615
166	0xbc0c0cec	-0.008548003
167	0xbc9e5992	-0.01932982
168	0xbd4e4b67	-0.050364878
169	0x3de9d411	0.114174016
170	0x3e0a48b4	0.13504297
171	0x3ddcb120	0.107759714
172	0xbd9a3fcd	-0.075317
173	0xbd911091	-0.07083238
174	0x3d2588f5	0.040413816
175	0xbda5fd5e	-0.081049666
176	0xbb99602a	-0.004680653
177	0xbd1f107f	-0.03883409
178	0xbd0c0fad	-0.034194637
179	0x3cecbf86	0.02889992
180	0xbc01ffbc	-0.007934507
181	0xbb8e040f	-0.00433398
182	0xbd23efcd	-0.040023614
183	0x3c831a7f	0.016003845
184	0x3cd1f2a4	0.025628395
185	0x3cb47d11	0.022032293
186	0x3cb93574	0.022608496
187	0xba569089	-0.00081849896
188	0x3d5e34ad	0.054249454
189	0xbc65ebdb	-0.014033283
190	0xbcaeb2c1	-0.02132547
191	0x3c82b510	0.015955478
192	0xbcf12135	-0.02943478
193	0x3bbb4eae	0.0057161665
194	0xbc51feb2	-0.012817072
195	0x3c69c6ac	0.0142685585
196	0xbc95aaa9	-0.018269854
197	0xbcea6c51	-0.028616102
198	0xbcde7898	-0.027157113
199	0xbc54bd97	-0.012984655
200	0xbceb9d35	-0.028761486
201	0xbc63fd15	-0.01391532
202	0xbd1999cb	-0.037500184
203	0xbc20431e	-0.009781627
204	0xbd32963a	-0.0436003
205	0x3c1e3356	0.009655794
206	0x3c6a412b	0.014297764
207	0xbc49b27b	-0.0123106195
208	0x3ca9c477	0.020723565
209	0xbb79ff5a	-0.0038146586
210	0xbce9a1ca	-0.02851953
211	0x3add0c73	0.0016864672
212	0xbc2001b3	-0.00976603
213	0xbb0272a5	-0.001990476
214	0xbcfcd290	-0.030862123
215	0x3c21c95c	0.009874668
216	0xba1d487c	-0.0005999876
217	0xbd502d5c	-0.050824508
218	0xbc883551	-0.016626986
219	0x39c383c4	0.0003729147
220	0xbd01e0d7	-0.031708565
221	0xbc07bb1d	-0.008284357
222	0xbc5f2beb	-0.013621311
223	0xbd2a0bbb	-0.041515093
224	0xbd0bf1b5	-0.034166057
225	0xbb789b1a	-0.0037934245
226	0xbd49774a	-0.04918603
227	0x3ba2ad2e	0.0049644923
228	0x3a2c3e23	0.00065705384
229	0xbcdf4ee0	-0.02725929
230	0xbd396746	-0.045264505
231	0x3a2c5331	0.0006573676
232	0xbcea8a2e	-0.028630342
233	0xbc3565bd	-0.01107162
234	0xbd2cad72	-0.042157598
235	0xbd0c763a	-0.034292437
236	0xbd19e658	-0.03757319
237	0xbcc060ee	-0.02348372
238	0x3b808f15	0.0039233067
239	0xbc916f3b	-0.017753234
240	0xbc75c1b6	-0.014999798
241	0xbd533fc1	-0.051574472
242	0xba8e44e2	-0.0010854269
243	0xbd0686df	-0.032843467
244	0x3b99fc92	0.004699298
245	0xbd2277f3	-0.039665174
246	0xbcb0e642	-0.02159417
247	0x3ab70372	0.0013962819
248	0x3c1278f4	0.00893997
249	0x3bd2991c	0.0064269435
250	0xbd38c099	-0.04510555
251	0xbb77ccf9	-0.0037811382
252	0xbbc4b5e3	-0.006003128
253	0xba361187	-0.0006945361
254	0xbbe2e4fc	-0.0069242697
255	0xbd208ac1	-0.039194826

bias f4 [50]
0	0xbdc94bd6	-0.09828918
1	0x3f059536	0.521808
2	0x3e48a781	0.19595148
3	0xbd0fd853	-0.035118412
4	0xbd325238	-0.04353544
5	0xbe8c8c61	-0.2745085
6	0x3c96c687	0.018405212
7	0xbd41bcbe	-0.04729914
8	0xbca8d7ba	-0.020610679
9	0xbe773767	-0.24142228
10	0xbdb42525	-0.08796147
11	0xbf02399c	-0.50869155
12	0x3c92c076	0.017914038
13	0x3ea01b89	0.31271008
14	0xbdb4b5f1	-0.08823765
15	0x3e3d0cc3	0.184619
16	0xbe29da5d	-0.16587205
17	0xbc346fd5	-0.011012991
18	0xbd4ac4f6	-0.049504243
19	0xbf265d6c	-0.649863
20	0xbd55d055	-0.052200634
21	0xbc9d6e32	-0.019217584
22	0x3c470c7f	0.012148975
23	0x3f1b1a66	0.60587156
24	0xbe0a9c08	-0.13536084
25	0xbd1c6e5c	-0.038191184
26	0xbc1b9856	-0.009496769
27	0xbdaa9642	-0.08329441
28	0xbda893d3	-0.0823132
29	0xbd75c374	-0.06000085
30	0xbf30f10d	-0.69117814
31	0xbb9cdaf4	-0.0047868434
32	0x3bdde72e	0.0067719435
33	0xbc845403	-0.016153341
34	0xbc2a4be0	-0.010394067
35	0x3df9824a	0.12183054
36	0xbce51855	-0.027965704
37	0xbd340d4b	-0.04395799
38	0xbd5a832f	-0.053347763
39	0x3c326e8f	0.010890617
40	0xbce6693f	-0.028126357
41	0xbc8b2b77	-0.0169885
42	0xbd54be49	-0.051939283
43	0xbe0f7ea5	-0.14013155
44	0x3ef0ed07	0.47055838
45	0xbcc3dc78	-0.023908839
46	0xbdce7c45	-0.10082296
47	0x3f85ac12	1.0443137
48	0x3c586f5b	0.013210143
49	0xbd092c36	-0.03348943

weight f4 [30, 50]
0	0xbd9424db	-0.07233592
1	0xbbb31b7d	-0.0054659233
2	0x3e397984	0.18112761
3	0x3e6e785b	0.232881
4	0x3d916117	0.070985965
5	0xbe989a0a	-0.29805022
6	0xbd1ef950	-0.03881198
7	0xbae35c47	-0.0017346226
8	0x3c2af673	0.010434735
9	0x3dbaacb9	0.091149755
10	0xbde550a9	-0.11197025
11	0xbe653dc3	-0.22386841
12	0xbd927bde	-0.07152532
13	0xbc581c61	-0.01319036
14	0xbe2320a9	-0.15930428
15	0xba88321b	-0.0010390909
16	0x3cada52a	0.02119692
17	0x3da29d52	0.07940163
18	0x3d01ff62	0.031737693
19	0xbeacbc77	-0.33737537
20	0xbd1ec9d4	-0.038766697
21	0x3cef422b	0.029206356
22	0x3d961626	0.07328443
23	0xbda7d3e5	-0.081947125
24	0x3d593ea7	0.053038266
25	0xbdabf3db	-0.08396121
26	0xbdafbbfd	-0.08580778
27	0x3cab689d	0.020923907
28	0xbdff348a	-0.12461193
29	0x3ecd8507	0.40140554
30	0xbec84229	-0.39112976
31	0xbe1afc51	-0.15135314
32	0x3e7c9f0e	0.2467005
33	0xbd61ebca	-0.055156507
34	0x3d8f10bc	0.06985614
35	0x3e6ff76b	0.23434226
36	0x3e2b638c	0.16737193
37	0x3da1667c	0.078808755
38	0x3bde6492	0.0067868913
39	0xbe4027a6	-0.18765125
40	0xbd9cbe40	-0.07653475
41	0xbe02a0b0	-0.1275661
42	0xbcf72e94	-0.030173577
43	0x3dd1418d	0.10217581
44	0x3d6c009b	0.057617765
45	0x3d5c397e	0.053765766
46	0x3dc72cdf	0.09725355
47	0x3e724a68	0.23661196
48	0xbdeba649	-0.11506326
49	0x3cefc5e8	0.029269174
50	0xbd27028f	-0.040773924
51	0x3c8a23b2	0.016862724
52	0x3d66504d	0.056228925
53	0xbe07ff0b	-0.13280885
54	0xbc86fce0	-0.016478002
55	0xbdae532f	-0.0851196
56	0xbe0bb209	-0.13642134
57	0x3d4e1bb0	0.050319374
58	0x3d5463b6	0.051852904
59	0xbe13c3e2	-0.14430192
60	0x3e04b6cf	0.12960361
61	0xbd979f06	-0.07403378
62	0xbc628eb6	-0.01382797
63	0xbe1de5c5	-0.15419681
64	0xbd6eda9e	-0.05831396
65	0xbd255377	-0.0403628
66	0xbd75fbc8	-0.06005457
67	0xbd3e13b5	-0.046405513
68	0x3cd8edb4	0.026480533
69	0xbd431617	-0.04762849
70	0x3d7fa82b	0.062416237
71	0x3ca9cf57	0.02072875
72	0xbceb14f2	-0.028696511
73	0xbc8beb5f	-0.017080007
74	0x3d80a757	0.062819175
75	0x3cf668df	0.030079303
76	0x3d4edd9e	0.05050432
77	0x3db58c7c	0.08864686
78	0x3c0f34fe	0.008740662
79	0xbdc53e74	-0.096310526
80	0xbd74dacb	-0.05977897
81	0x3db39ec9	0.0877052
82	0xbd91f43d	-0.07126663
83	0x3bae1c94	0.0053134654
84	0xbe0468ee	-0.12930652
85	0xbce3e0a8	-0.027817085
86	0xbe21cefa	-0.15801612
87	0xbdb0a304	-0.08624843
88	0xbdb0088f	-0.085953824
89	0xbe348e6a	-0.17632452
90	0xbd09a08e	-0.033600383
91	0xbd3ee7dd	-0.04660784
92	0xbc0bb2a0	-0.008526474
93	0x3dbf84c9	0.09351499
94	0xbdb7da8e	-0.08977233
95	0x3dc98672	0.098400965
96	0xbd4f20f9	-0.050568555
97	0xbd79da71	-0.060999338
98	0xbd4a72fc	-0.049426064
99	0xbdbf56c7	-0.09342723
100	0x3e962ad1	0.2932954
101	0x3cf1aaa1	0.029500308
102	0xbd9be16d	-0.07611356
103	0x3e273f31	0.163327
104	0xbb030f00	-0.0019997954
105	0x3db7fe63	0.08984067
106	0xbe5ee98c	-0.21768779
107	0x3d5766dc	0.05258833
108	0x3d82fd36	0.063959524
109	0xbc5b7dc7	-0.013396687
110	0x3dae755e	0.0851848
111	0xbea29f38	-0.317621
112	0xbd9899d7	-0.074512176
113	0xbd2b44dc	-0.041813716
114	0xbdc13f91	-0.094359525
115	0xbdc6d92c	-0.09709391
116	0xbd63cf84	-0.055617824
117	0x3d449ca0	0.04800093
118	0x3c981ec6	0.018569361
119	0xbee592cd	-0.44838563
120	0x3df7c2ba	0.12097688
121	0x3dbdd0ea	0.09268363
122	0x3de980e6	0.114015386
123	0xbe3e5374	-0.18586522
124	0xbdf3abec	-0.11898026
125	0x3e01f509	0.1269113
126	0xbdd77e00	-0.105220795
127	0x3d4fb704	0.050711647
128	0x3ebb3e48	0.36570954
129	0x3cbb4178	0.022858366
130	0xbea742df	-0.32668206
131	0x3d940b1e	0.07228683
132	0x3f273ce8	0.6532731
133	0x3c7bba50	0.015364245
134	0x3dc65de2	0.096858755
135	0xbe23bfbf	-0.15991114
136	0xba5bebbf	-0.0008389316
137	0x3dc0ab3c	0.0940766
138	0xb938d800	-0.00017628074
139	0xbd80c538	-0.062876165
140	0xbd0e1d2e	-0.034695797
141	0x3c40dcf0	0.011771426
142	0xbdc02742	-0.09382488
143	0xbe102717	-0.14077412
144	0xbeb8fc9f	-0.36130235
145	0xbdf001b2	-0.11719073
146	0xbd972733	-0.073805235
147	0xbdedbd17	-0.11608332
148	0xbcaf39f8	-0.021389946
149	0xbdcc610b	-0.09979447
150	0x3d8133c5	0.063087024
151	0x3cd342fd	0.025788778
152	0x3e2ea51e	0.17055175
153	0x3d27f528	0.041005284
154	0x3d9f5b22	0.07781054
155	0xbbaf536d	-0.0053505213
156	0xbe14934f	-0.14509319
157	0x3c06d980	0.008230567
158	0x3d9ef42e	0.07761417
159	0xbdd155a7	-0.10221415
160	0xbbc06740	-0.0058716834
161	0xbeed84b1	-0.46390298
162	0xbc8402e4	-0.01611466
163	0xbe355e96	-0.17711863
164	0xbe62fa2a	-0.22165743
165	0xbec876a9	-0.3915303
166	0x3dc9dad0	0.09856188
167	0xbd09efee	-0.03367608
168	0xbde8bd8b	-0.113642775
169	0xbeeb4d0f	-0.4595723
170	0x3ba84429	0.0051350784
171	0xbe298606	-0.16555032
172	0xbdb6e19d	-0.08929751
173	0xbe9b7a3a	-0.3036669
174	0xbe0a604b	-0.13513295
175	0x3dfd06ea	0.123548344
176	0x3dc81989	0.097704954
177	0x3da3cb6b	0.07997783
178	0xbeab06c5	-0.33403602
179	0x3d8eb220	0.069675684
180	0xbeba5824	-0.3639537
181	0xbe127c4c	-0.14305228
182	0x3d8ec1fa	0.06970592
183	0xbdbcd1ee	-0.092197284
184	0xbe017cd8	-0.1264528
185	0x3c341c7a	0.0109931175
186	0x3b40c87b	0.002941637
187	0xbd922d7a	-0.0713758
188	0xbd6cf39a	-0.057849504
189	0x3e28a1a3	0.1646791
190	0x3bc86539	0.0061155823
191	0xbd8380fb	-0.064210854
192	0xbc7e8200	-0.015533924
193	0xbd864d70	-0.06557739
194	0xbdf9da6b	-0.12199863
195	0x3d756845	0.059913892
196	0x3cbafc5a	0.022825409
197	0xbedd8756	-0.43267316
198	0xbcf7209c	-0.030166917
199	0xbdfef12f	-0.12448346
200	0xbe5081fa	-0.20362082
201	0xbd15481e	-0.03644573
202	0x3a12a117	0.0005593462
203	0x3e2cb246	0.16864881
204	0xbe0e478b	-0.13894479
205	0x3cf13859	0.029445814
206	0xbdf7020b	-0.120609365
207	0x3e1d1ec0	0.15343761
208	0x3aa8fbca	0.0012892422
209	0x3de15b1d	0.110037066
210	0x3e34800a	0.17626968
211	0xbda6118a	-0.08108814
212	0x3e0bc06e	0.13647625
213	0x3d55928d	0.052141715
214	0xbe2203ca	-0.15821758
215	0x3c61fd68	0.013793327
216	0xbe19e776	-0.15029702
217	0x3d09e507	0.033665683
218	0x3dc0db65	0.09416846
219	0xbdde2fcc	-0.1084896
220	0xbca3bc3f	-0.019987224
221	0x3d5e3b25	0.054255623
222	0x3e137491	0.14399935
223	0xbe8e610a	-0.2780841
224	0xbd52d253	-0.051470112
225	0xbdf3d131	-0.119051345
226	0x3c8970f6	0.016777497
227	0x3d1cd7c4	0.038291708
228	0xbd9c426e	-0.07629858
229	0x3d787096	0.060654245
230	0x3d0b43d6	0.03400024
231	0xbda64771	-0.08119095
232	0x3d60d12a	0.054886974
233	0xbe126f5c	-0.14300293
234	0x3d92ca82	0.071675315
235	0xbe58aa43	-0.211587
236	0xbd4c9c54	-0.049953774
237	0xbcd6e347	-0.026231421
238	0xbd983b1a	-0.07433148
239	0xbe0cc423	-0.13746695
240	0x3d39fada	0.045405246
241	0x3d719da8	0.058988243
242	0x3dc94768	0.09828073
243	0xbe0fa360	-0.14027166
244	0xbd8047f9	-0.06263728
245	0xbbcfb19f	-0.0063383128
246	0x3bd8947b	0.006609497
247	0xbe8fe0d6	-0.28101224
248	0xbb041436	-0.0020153648
249	0x3d84e255	0.06488482
250	0xbcbcd3ab	-0.02305015
251	0xbe055581	-0.13020898
252	0xbd81d9de	-0.06340383
253	0x3e0196fc	0.12655252
254	0x3d5fa9e0	0.054605365
255	0x3bb49f15	0.005512128

bias f4 [30]
0	0x3fb08b93	1.3792595
1	0xbe161dce	-0.14659807
2	0xbeca4785	-0.3950769
3	0xbedc9bc9	-0.43087605
4	0x3a9bc1f9	0.001188337
5	0xbe1390f7	-0.14410768
6	0x3d0ab243	0.03386141
7	0xbe1d1b61	-0.15342475
8	0xbf1de721	-0.616808
9	0xbee8c4ab	-0.45462546
10	0xbe39b678	-0.18136013
11	0x3f416e31	0.75558764
12	0xbd082fff	-0.033248898
13	0xbe9ed0af	-0.31018588
14	0xbeb12ffe	-0.34606928
15	0x3cf4d611	0.029887231
16	0x3d6b221e	0.057405584
17	0xbe941dbd	-0.28928939
18	0x3ee182ae	0.44045013
19	0x3f1a27aa	0.6021677
20	0xbe1e2f08	-0.15447628
21	0xbe674fe6	-0.22589073
22	0xbe41f301	-0.18940355
23	0xbe9caa84	-0.30598843
24	0x3f1b83d9	0.6074806
25	0x3f28b7a0	0.6590519
26	0xbee38066	-0.44433898
27	0x3f3d03c9	0.738339
28	0xbf02ed57	-0.511434
29	0xbe95ac38	-0.29232955

weight f4 [2, 30]
0	0xbcc6f345	-0.024285922
1	0xbd7a0d69	-0.061047945
2	0xbb8bb6ee	-0.0042637503
3	0x3dbc3c5a	0.09191199
4	0xbdd0170f	-0.10160648
5	0x3d8704b2	0.065926924
6	0xbd789b06	-0.060694717
7	0xbe009b85	-0.12559326
8	0x3e4a28a6	0.19742069
9	0x3e3460fb	0.1761512
10	0xbd1bdd31	-0.03805274
11	0xbe03bcc3	-0.12864976
12	0x3e258f26	0.16167888
13	0x3e25e141	0.16199209
14	0x3d29aa62	0.041422255
15	0x3df3c38a	0.119025305
16	0xbcca01b1	-0.02465901
17	0xbd0eb9ee	-0.034845285
18	0x3da724e1	0.08161331
19	0x3e2d6b37	0.1693543
20	0xbdb7fcb5	-0.08983747
21	0x3d454f81	0.048171524
22	0x3e08646e	0.13319561
23	0x3dcc936e	0.099890575
24	0x3d8769d2	0.066119805
25	0xbd06e736	-0.032935344
26	0xba68f1b3	-0.00088861136
27	0xbd6d82b9	-0.057985995
28	0x3e113a9e	0.14182517
29	0x3cc08ed3	0.023505604
30	0x3e34b0cc	0.17645568
31	0xbe0a1dad	-0.13487883
32	0x3e09987a	0.13437071
33	0xbe3b5f0b	-0.18297975
34	0xbd7c4f7c	-0.06159924
35	0xbb5bec92	-0.0033557755
36	0xbd7ddc9f	-0.06197798
37	0xbdfe9008	-0.124298155
38	0x3d7cc7fb	0.061714154
39	0xbe257629	-0.16158356
40	0xbc080a36	-0.008303216
41	0x3bcf6a3e	0.0063298037
42	0x3ca0c6d6	0.019626062
43	0xbd88a33f	-0.06671762
44	0x3dd07d86	0.10180192
45	0xbe20c2e1	-0.1569934
46	0xbdd52ef2	-0.10409345
47	0xbd591d7c	-0.053006634
48	0xbdb66d8c	-0.08907613
49	0x3dd40447	0.10352378
50	0xbdea4a1e	-0.11439918
51	0xbe000411	-0.12501551
52	0x3e04e45d	0.12977739
53	0x3db70da0	0.08938146
54	0x3c928ec8	0.017890349
55	0x3dc9eed4	0.09860006
56	0x3d1320a1	0.03591979
57	0x3e446e7d	0.19182773
58	0xbd3d0166	-0.04614391
59	0x3c245010	0.010028854

bias f4 [2]
0	0xbf0db618	-0.5535598
1	0x3e9e4656	0.30913037
