models/model_no_TransferLearning.pth (torch, 218587 bytes, 14 tensors)

weight f4 [6, 1, 3, 3]
-0.5152176 -0.074071996 0.06770246 -0.042712115 -0.12593202 0.20587264 0.2568535 0.24803102
0.088085786 -0.098327816 0.029505532 -0.08983816 -0.10316949 0.27625793 0.35256246 -0.056517404
-0.05371427 0.03606279 0.018441338 0.13328408 0.14531064 -0.33319712 -0.13593616 0.308611
0.11517773 -0.059499104 -0.26659718 -0.24415565 -0.35524726 -0.115697354 0.07006163 0.15082689
0.15214467 -0.32618648 -0.24745077 -0.052735098 0.39741465 0.081218176 -0.06017951 0.17739402
-0.105452664 -0.20465823 0.26929706 -0.1507117 -0.07145828 -0.3653455 0.2881686 0.32968417
0.094086744 -0.2529024 -0.36885557 -0.32122257 0.25685105 0.12811343
00000000: 4de5 03bf 0fb3 97bd 96a7 8a3d e6f2 2ebd
00000010: 53f4 00be 47d0 523e 4d82 833e d8fb 7d3e
00000020: 5266 b43d 1860 c9bd 96b5 f13c 12fd b7bd
00000030: 874a d3bd ae71 8d3e 1183 b43e cb7e 67bd
00000040: 7f03 5cbd 93b6 133d 4a12 973c 9f7b 083e
00000050: 50cc 143e d098 aabe d932 0bbe 4302 9e3e
00000060: 4de2 eb3d 55b5 73bd 6d7f 88be f003 7abe
00000070: f8e2 b5be bcf2 ecbd 797c 8f3d 5d72 1a3e
00000080: d0cb 1b3e ea01 a7be bc63 7dbe c200 58bd
00000090: ef79 cb3e b755 a63d ca7e 76bd c7a6 353e
000000a0: 91f7 d7bd ed91 51be 4ee1 893e 2b54 1abe
000000b0: b858 92bd 910e bbbe d68a 933e 5dcc a83e
000000c0: 8db0 c03d 6c7c 81be a3da bcbe 4977 a4be
000000d0: fb81 833e 2b30 033e

bias f4 [6]
0.1218144 0.04489145 0.04456649 -0.055083185 -0.26582444 -0.14386497
00000000: d479 f93d 19e0 373d 5a8b 363d e89e 61bd
00000010: 241a 88be 5751 13be

weight f4 [10, 6, 3, 3]
-0.036916573 0.1945774 0.039963353 -0.00032100675 -0.047300633 -0.01088505 -0.029365806 0.023391504
0.14481375 0.036012378 0.16883953 0.029844986 -0.08041345 -0.011903253 -0.101778425 -0.022830572
-0.090897635 0.113104194 -0.25759196 0.16003281 0.10899557 0.13863592 -0.01091014 0.11525832
-0.16832562 0.10880598 0.017219208 -0.03949253 0.0128161805 -0.05193309 -0.10652978 0.110807694
-0.12038113 0.11551663 0.16678694 0.16813426 0.010759515 -0.10207383 0.020109376 0.15887134
-0.10332164 -0.10645873 -0.10300934 -0.14183694 -0.23983268 -0.23123413 0.04592496 -0.030466333
0.060025234 0.31893927 0.13924466 -0.091266 0.043088343 0.019507265 -0.19337487 0.009660624
-0.13310672 -0.02714338 0.091651455 0.05041958 0.030746816 0.064828776 -0.032367747 -0.12595576
-0.34666067 -0.48192167 0.13004896 -0.055786997 -0.044337526 -0.009264036 -0.011437543 0.037207164
-0.0022200139 -0.14241335 0.10627127 0.10312782 0.0049645714 0.038485613 0.05342711 -0.17006908
-0.15282801 -0.026575992 0.11153205 0.27054918 0.11368878 -0.018663168 -0.04621793 -0.04160569
-0.23680994 -0.2640693 0.20265886 0.123572156 -0.042005695 0.053412106 0.06984946 0.1496039
0.012721427 0.099670045 0.21656872 -0.034659542 -0.04257813 0.15999262 0.13968733 0.09624931
0.007483418 0.07862027 -0.10129821 -0.0092799105 -0.07040838 -0.06640364 0.09823339 0.054161426
0.12394734 0.13375002 0.07567309 -0.14513102 -0.019207101 0.053373493 -0.023055127 -0.071256705
0.13672262 -0.0074921413 -0.050695952 -0.17461663 0.00090624625 0.047145616 0.070606895 0.038127746
-0.0885487 -0.055644657 0.062623665 0.19250719 0.19875345 0.024842862 0.05094246 -0.12906358
-0.11512695 -0.0376254 0.09863051 0.10799987 -0.16536981 0.14028645 -0.08072883 0.037209995
0.13618195 -0.040350795 0.08297568 -0.15975444 -0.033484735 0.12387302 0.028179137 -0.09191507
-0.0527324 0.08138953 0.12390065 0.025536811 -0.08903282 -0.0083496235 0.056908935 0.10817732
0.027533121 0.015142747 0.13622874 0.06750277 0.054397296 -0.016466718 -0.1404906 -0.1636566
-0.09126403 -0.10914969 0.03159773 -0.024947006 -0.027912915 0.17087881 0.08765517 0.11196813
-0.097195156 -0.09122391 0.02031601 -0.15475987 -0.09897799 -0.034839958 -0.00413324 -0.08738582
0.11319113 0.24195847 0.06899455 -0.11225702 -0.13724178 -0.16393313 0.054371882 0.114089645
-0.07899318 -0.018918915 0.168782 -0.14567201 0.098506466 0.028507527 0.029737407 -0.1286571
-0.02995395 0.18834269 0.16604733 0.066599816 0.19376901 0.06052732 -0.27472746 -0.29184213
-0.05663866 0.2161065 -0.20078567 -0.1180985 -0.11931754 -0.07460158 -0.0040342724 0.23636751
-0.014370875 -0.03998747 0.0939214 0.0036639238 -0.052793343 0.055932783 -0.006108901 0.013932578
-0.07495037 0.030247211 -0.102189235 -0.13311067 -0.075944036 0.17310113 0.10572559 0.088439934
0.1229126 0.12546985 -0.07328149 -0.2222298 0.029561173 0.005578885 -0.089209236 -0.021489406
0.02108079 0.14749052 -0.2832804 -0.24869125 -0.11990465 -0.24032779 -0.07324803 0.07968051
0.004324022 0.099596985 0.08846038 0.024956418 0.014938965 0.15979387 0.09394295 0.061319172
00000000: d535 17bd 4c3f 473e 9db0 233d cc4c a8b9
00000010: 4fbe 41bd 3557 32bc 8f90 f0bc 8a9f bf3c
00000020: 0e4a 143e b781 133d 45e4 2c3e 797d f43c
00000030: cfaf a4bd dd05 43bc 3571 d0bd 2e07 bbbc
00000040: 8a28 babd 2ca3 e73d 18e3 83be a4df 233e
00000050: 1239 df3d 93f6 0d3e 72c0 32bc 8e0c ec3d
00000060: 8d5d 2cbe abd5 de3d 4c0f 8d3c ebc2 21bd
00000070: f5fa 513c cbb7 54bd 492c dabd 25ef e23d
00000080: 628a f6bd fc93 ec3d 32ca 2a3e 632b 2c3e
00000090: ad48 303c 160c d1bd 6bbc a43c 2baf 223e
000000a0: 4c9a d3bd 0907 dabd 90f6 d2bd b43d 11be
000000b0: b396 75be a4c8 6cbe d01b 3c3d 8894 f9bc
000000c0: 05dd 753d 024c a33e 2796 0e3e abe9 babd
000000d0: 677d 303d b3cd 9f3c 1004 46be 9847 1e3c
000000e0: 214d 08be cb5b debc c2b3 bb3d c384 4e3d
000000f0: bfe0 fb3c f3c4 843d 0b94 04bd 8cfa 00be
00000100: 827d b1be 70be f6be 8e2b 053e e880 64bd
00000110: 449b 35bd 2fc8 17bc 8864 3bbc 8a66 183d
00000120: a77d 11bb ced4 11be c0a4 d93d ae34 d33d
00000130: d8ad a23b 17a3 1d3d 63d6 5a3d 9726 2ebe
00000140: f27e 1cbe e5b5 d9bc ea6a e43d 6c85 8a3e
00000150: aad5 e83d 80e3 98bc 034f 3dbd ba6a 2abd
00000160: 4e7e 72be 1734 87be ce85 4f3e 6613 fd3d
00000170: 2a0e 2cbd a7c6 5a3d 3c0d 8f3d c431 193e
00000180: 886d 503c cf1f cc3d 31c4 5d3e 2af7 0dbd
00000190: 6866 2ebd 1bd5 233e 320a 0f3e 5c1e c53d
000001a0: 7637 f53b aa03 a13d 7075 cfbd c40a 18bc
000001b0: 4532 90bd a2fe 87bd 962e c93d 5fd8 5d3d
000001c0: 1ad8 fd3d c4f5 083e 7efa 9a3d 3a9d 14be
000001d0: 3658 9dbc 2a9e 5a3d 1bde bcbc 09ef 91bd
000001e0: 0401 0c3e a380 f5bb 8fa6 4fbd b4ce 32be
000001f0: 2891 6d3a c31b 413d 599a 903d d72b 1c3d
00000200: 0559 b5bd a7eb 63bd d640 803d 9b20 453e
00000210: 0686 4b3e 4283 cb3c 0aa9 503d 3e29 04be
00000220: aec7 ebbd 171d 1abd cbfe c93d 092f dd3d
00000230: b456 29be 40a7 0f3e 2855 a5bd 8269 183d
00000240: 4873 0b3e e046 25bd 27ef a93d ab96 23be
00000250: 4a27 09bd 23b1 fd3d efd7 e63c f83d bcbd
00000260: eefd 57bd 8eaf a63d a0bf fd3d 9332 d13c
00000270: d756 b6bd dccc 08bc 5819 693d 128c dd3d
00000280: 248d e13c 4919 783c 8c7f 0b3e e43e 8a3d
00000290: b3cf 5e3d 36e5 86bc c5dc 0fbe 9995 27be
000002a0: a3e8 babd df89 dfbd 9f6c 013d aa5d ccbc
000002b0: a0a9 e4bc dbfa 2e3e 8e84 b33d 8c4f e53d
000002c0: 410e c7bd 9ad3 babd c36d a63c 5f79 1ebe
000002d0: f9b4 cabd 58b4 0ebd 2170 87bb 56f7 b2bd
000002e0: c0d0 e73d f6c3 773e 044d 8d3d 02e7 e5bd
000002f0: 1c89 0cbe 16de 27be 0db5 5e3d d5a7 e93d
00000300: 2dc7 a1bd d7fb 9abc 30d5 2c3e 0b2b 15be
00000310: c2bd c93d 9e88 e93c dd9b f33c b0be 03be
00000320: fc61 f5bc e8dc 403e 5008 2a3e 7c65 883d
00000330: 626b 463e 7feb 773d 14a9 8cbe 556c 95be
00000340: f1fd 67bd 064b 5d3e c29a 4dbe a0dd f1bd
00000350: c15c f4bd b7c8 98bd ee31 84bb 530a 723e
00000360: d273 6bbc e7c9 23bd dd59 c03d 711e 703b
00000370: d53d 58bd c619 653d 2d2d c8bb 7845 643c
00000380: 947f 99bd 00c9 f73c 9748 d1bd 2a4e 08be
00000390: 8c88 9bbd 6c41 313e a886 d83d ff1f b53d
000003a0: 9ab9 fb3d 2b7b 003e 9b14 96bd 3590 63be
000003b0: 462a f23c 14cf b63b 55b3 b6bd 8d0a b0bc
000003c0: 9fb1 ac3c c107 173e 210a 91be eba8 7ebe
000003d0: 9290 f5bd 7d18 76be 1003 96bd 892f a33d
000003e0: 87b0 8d3b 81f9 cb3d b72a b53d 6771 cc3c
000003f0: 90c2 743c 01a1 233e 2965 c03d d029 7b3d

bias f4 [10]
-0.019908305 -0.017381137 -0.10313151 -0.0052447976 -0.11611253 -0.07567822 -0.22127181 0.027117856
-0.01932186 -0.12045261
00000000: be16 a3bc e362 8ebc 9d36 d3bd 8ddc abbb
00000010: 68cc edbd 2ffd 9abd 1495 62be 4426 de3c
00000020: e148 9ebc dcaf f6bd

weight f4 [10, 10, 3, 3]
0.15477979 0.091887735 0.13200587 0.04194888 -0.020376591 0.12180053 -0.12825407 -0.08435935
0.0018891501 -0.1794331 0.020365182 -0.08131615 -0.100561455 -0.15853141 -0.07243327 0.12903114
0.14761306 0.18715808 0.21648179 0.2849975 0.026479311 -0.12075494 -0.05660429 0.028858807
-0.071598046 -0.07670063 -0.14037918 0.21702197 0.18039005 0.031748354 0.2082673 -0.14385542
-0.014210469 -0.21806434 -0.11670228 -0.014998228 0.08536776 0.2163118 -0.05427214 0.029084818
-0.059174124 0.116016075 -0.26219723 -0.2122558 -0.20610891 0.11546376 0.29743677 0.048233163
0.10037305 0.022750212 -0.015148845 -0.0714452 -0.16111311 -0.11976809 0.018911533 0.014375045
-0.06495769 -0.028801817 -0.020695059 0.07051272 -0.23782375 -0.26171717 -0.06222495 0.068629675
0.3245619 0.053424537 0.25453746 0.16132684 0.123801604 -0.08206493 0.2735022 0.180807
0.09667863 0.33325338 0.06594285 -0.025888365 -0.009752297 0.12839411 -0.06306153 0.0031074195
-0.117345594 0.0045908205 0.21589287 0.13521282 0.047336478 0.018386316 0.030222468 -0.08632098
0.027002316 0.055279158 -0.04831958 0.017254738 -0.0820579 0.08245751 0.1619492 -0.008591688
0.13271804 0.17378032 -0.0040916954 -0.17278841 -0.018976895 -0.06046786 -0.13784428 -0.09730154
-0.06117985 0.16468447 0.11271646 -0.14231028 -0.0024402146 0.015946338 -0.057715848 0.03551755
0.16091482 0.028460572 -0.022704551 0.081918135 0.03953697 -0.12904997 0.032533217 0.068920456
-0.10167749 -0.19756007 0.067730516 0.16464823 0.14476512 0.14000979 -0.019160362 -0.004952119
0.09785614 -0.028533097 0.01071207 -0.08251358 0.025772624 -0.012193151 -0.017051749 0.08894868
0.04321891 0.003090966 0.044427954 -0.0051071392 -0.052064374 0.03893605 0.079120606 -0.06572679
-0.0078070182 0.04616865 -0.04569667 -0.051929556 0.076378234 -0.06607474 -0.19316722 -0.14635937
-0.085414335 -0.09921486 -0.15349005 -0.18562883 0.03331686 -0.18533742 -0.2679248 -0.060594507
0.18276383 -0.20260061 0.051005334 0.2038826 0.12789029 0.08927488 -0.061432764 -0.046840332
0.028893933 0.18211932 0.05418413 0.041987225 0.15387902 0.021312963 0.0031915584 0.025922427
0.12909321 0.08613962 0.07595847 0.03821041 -0.1401714 -0.023569439 0.011536599 0.027820352
-0.053446334 0.079595536 0.06350491 -0.03725077 0.1349011 0.0039916406 0.09408773 -0.028479574
-0.28325635 0.0024380118 -0.16677532 -0.33955982 -0.064362876 -0.11802536 0.026101751 0.041573893
0.020331811 -0.023867588 0.0029676657 -0.10191268 -0.08164511 0.04379771 -0.06349379 -0.052626345
0.03653194 0.055828962 -0.3006008 0.03552836 -0.037877638 -0.12207539 -0.067427814 -0.009080169
-0.03470942 0.09068938 0.0617624 -0.13278739 -0.04350833 -0.022548608 -0.20461527 -0.07442584
-0.034407247 0.01285684 0.15614626 0.08267817 -0.037390713 0.018665573 0.025207244 -0.058207598
-0.029645557 -0.041883394 -0.018928764 0.14876992 0.15541537 -0.13515908 -0.09560068 0.014516556
-0.30520487 -0.013777783 0.04775782 -0.14808129 -0.09471022 0.038247854 0.04970059 0.02885732
-0.25229022 0.11024084 0.19388163 -0.050340783 0.16482165 0.13814142 0.11485532 -0.0014416355
00000000: 987e 1e3e a32f bc3d 8c2c 073e 97d2 2b3d
00000010: cfec a6bc 8e72 f93d 0955 03be 98c4 acbd
00000020: 5c9d f73a 50bd 37be e2d4 a63c 1589 a6bd
00000030: 2af3 cdbd 0f56 22be e557 94bd bd20 043e
00000040: e127 173e 5ea6 3f3e 67ad 5d3e 31eb 913e
00000050: 24eb d83c 5e4e f7bd e6d9 67bd 4e69 ec3c
00000060: ffa1 92bd 3815 9dbd 8fbf 0fbe 023b 5e3e
00000070: 2bb8 383e 900a 023d 0644 553e d64e 13be
00000080: 07d3 68bc 424c 5fbe 9b01 efbd 21bb 75bc
00000090: 4bd5 ae3d d780 5d3e 774c 5ebd 4943 ee3c
000000a0: 9160 72bd d699 ed3d b73e 86be 9659 59be
000000b0: 370e 53be 4478 ec3d a249 983e 2390 453d
000000c0: 6390 cd3d a75e ba3c dc32 78bc dc51 92bd
000000d0: d6fa 24be f948 f5bd 5cec 9a3c 4f85 6b3c
000000e0: 8a08 85bd caf1 ebbc af88 a9bc f968 903d
000000f0: 1288 73be cbff 85be 97df 7ebd b78d 8c3d
00000100: fa2c a63e b0d3 5a3d bc52 823e dd32 253e
00000110: b28b fd3d a811 a8bd 7b08 8c3e 7825 393e
00000120: 72ff c53d 30a0 aa3e 0c0d 873d d613 d4bc
00000130: 19c8 1fbc bf79 033e 6726 81bd d9a5 4b3b
00000140: e352 f0bd 986e 963b 0513 5d3e 3b75 0a3e
00000150: e5e3 413d e69e 963c 1c95 f73c 0ec9 b0bd
00000160: f633 dd3c 666c 623d c0ea 45bd cf59 8d3c
00000170: f90d a8bd 7cdf a83d 03d6 253e 27c4 0cbc
00000180: 3de7 073e 78f3 313e a113 86bb 72ef 30be
00000190: 6f75 9bbc 26ad 77bd 0d27 0dbe 0846 c7bd
000001a0: b997 7abd 0ca3 283e e3d7 e63d c9b9 11be
000001b0: 02ec 1fbb e5a1 823c 7467 6cbd da7a 113d
000001c0: dbc6 243e 2526 e93c e5fe b9bc b2c4 a73d
000001d0: 85f1 213d ad25 04be 8d41 053d 2b26 8d3d
000001e0: 4a3c d0bd 304d 4abe 4cb6 8a3d 8c99 283e
000001f0: 4f3d 143e ba5e 0f3e 31f6 9cbc 6345 a2bb
00000200: cd68 c83d 3ebe e9bc ae81 2f3c e1fc a8bd
00000210: 1c21 d33c c8c5 47bc 1cb0 8bbc ba2a b63d
00000220: 5006 313d ce91 4a3b 16fa 353d ca59 a7bb
00000230: 7441 55bd 687b 1f3d fc09 a23d c49b 86bd
00000240: 04d2 ffbb 571b 3d3d 6e2c 3bbd 16b4 54bd
00000250: 316c 9c3d 3152 87bd a1cd 45be 3bdf 15be
00000260: b6ed aebd 2931 cbbd 7f2c 1dbe 7c15 3ebe
00000270: 4377 083d 18c9 3dbe 702d 89be f231 78bd
00000280: 7126 3b3e 8976 4fbe f8ea 503d 9ac6 503e
00000290: acf5 023e c0d5 b63d eca0 7bbd a6db 3fbd
000002a0: f8b2 ec3c 7d7d 3a3e 2ef0 5d3d ccfa 2b3d
000002b0: 7692 1d3e 8698 ae3c 7729 513b 455b d43c
000002c0: 0331 043e f869 b03d 1d90 9b3d 8582 1c3d
000002d0: 1789 0fbe b214 c1bc 0104 3d3c 82e7 e33c
000002e0: 8bea 5abd fc02 a33d dd0e 823d 4394 18bd
000002f0: 8423 0a3e 4fcc 823b 11b1 c03d ff4d e9bc
00000300: fa06 91be 0dc7 1f3b 26c7 2abe c9da adbe
00000310: afd0 83bd 48b7 f1bd 57d3 d53c 6349 2a3d
00000320: e68e a63c f685 c3bc 2b7d 423b 98b7 d0bd
00000330: 8d35 a7bd 3a65 333d 0809 82bd b98e 57bd
00000340: 84a2 153d e9ac 643d 59e8 99be 3086 113d
00000350: 9525 1bbd a902 fabd 9817 8abd fdc4 14bc
00000360: 772b 0ebd 5bbb b93d 92fa 7c3d 6bf9 07be
00000370: ca35 32bd dcb7 b8bc aa86 51be 936c 98bd
00000380: 9dee 0cbd 7fa5 523c cee4 1f3e 2c53 a93d
00000390: 0127 19bd 8be8 983c 6c7f ce3c 176b 6ebd
000003a0: 3ddb f2bc ec8d 2bbd 7f10 9bbc 2457 183e
000003b0: 3525 1f3e 2467 0abe 4aca c3bd d9d6 6d3c
000003c0: d043 9cbe 36bc 61bc b49d 433d 9fa2 17be
000003d0: 6ff7 c1bd c8a9 1c3d d992 4b3d 3066 ec3c
000003e0: 2f2c 81be f3c5 e13d e888 463e 2332 4ebd
000003f0: 02c7 283e f274 0d3e 4439 eb3d 43f5 bcba

bias f4 [10]
-0.19056979 -0.066521436 -0.026718615 0.07847998 0.013917662 -0.07187074 -0.037678875 0.07722813
0.17517273 -0.010987667
00000000: ba24 43be 643c 88bd ffe0 dabc 1dba a03d
00000010: e806 643c f730 93bd 2a55 1abd c829 9e3d
00000020: 7b60 333e 9e05 34bc

weight f4 [5, 10, 3, 3]
-0.06942251 -0.08559972 0.06343363 0.0426607 -0.047722537 -0.034130786 0.028009104 -0.008572851
-0.096050225 0.103994176 0.19436605 0.12560557 0.20906363 0.05786294 0.019587021 0.09613431
-0.12028937 -0.03783462 0.030086067 0.09423307 -0.057742495 -0.036454983 0.052919578 -0.22199413
-0.18975611 -0.17521779 -0.03660162 0.012725715 -0.101248145 0.036862236 -0.04186008 -0.03268034
0.13142297 0.07747055 0.0062371325 0.042726275 -0.08132396 0.025710065 -0.15497069 -0.19019021
0.019500177 -0.17778558 -0.031080084 -0.12752652 -0.028228533 0.1922959 0.22812824 0.13082317
0.19998428 0.14200775 0.033925116 0.15754248 0.15236263 -0.04059481 0.1496349 0.06443009
0.03410875 0.07233585 -0.08283207 0.018718258 -0.010723176 -0.21234348 -0.12964514 -0.21521208
-0.04664191 -0.18704113 -0.0020264555 0.08236022 -0.02512154 0.15995674 0.1857363 0.070716165
-0.11263673 -0.15399581 0.0005490803 0.092431076 -0.020921031 0.0060072243 -0.08307855 -0.03770054
-0.06654413 0.18388622 0.058466602 -0.05947771 0.05446589 0.03838553 -0.079347335 -0.010511729
-0.012601397 -0.17769356 -0.17218323 -0.102596454 -0.26118344 -0.27359492 -0.06741536 -0.37955296
-0.23410513 -0.25874305 -0.36539564 0.1318267 0.019605722 -0.024091767 0.04238039 0.14674048
0.052520454 0.051100805 0.018290974 -0.0065472815 0.08207433 0.15159513 -0.010637663 -0.030863736
-0.11610725 -0.12264599 0.005112157 -0.030456737 0.085566856 -0.16721264 -0.16906928 -0.24301481
0.16319132 -0.035023686 0.036281474 0.15912354 0.12913162 0.14538395 0.04863306 0.03523309
-0.13888544 -0.115169354 0.03367064 -0.081466205 -0.14539556 -0.114965074 -0.19965318 0.16835009
0.06673513 0.06559018 0.103935614 0.11933391 -0.042595092 -0.012605145 0.07962806 0.0704208
-0.09077553 -0.12335401 0.023807272 0.063210845 0.04373936 0.090066455 -0.08763793 0.028950801
-0.048582494 0.043379907 0.14188218 -0.18375418 0.17975952 0.010332407 -0.20179866 0.10699187
0.28161716 0.27797392 -0.2776906 -0.02968944 0.00024733934 -0.10567537 0.16465749 0.1255584
0.064241916 0.23265414 0.27515426 0.11968401 0.24373077 0.19318847 -0.0066357674 -0.04125849
0.11255219 -0.17370608 0.010185058 0.05470586 0.005010154 0.041462075 0.030110123 0.076943524
0.037858687 0.06376585 -0.2520053 -0.1104631 0.058020964 0.19711672 -3.5962075e-05 0.065322995
0.15578227 -0.11225995 0.000783265 0.0011669528 -0.02627534 0.14698343 0.13625683 0.22857161
-0.08187115 0.05512653 -0.038533516 -0.023859076 -0.07006908 0.07422722 0.15948808 -0.048731625
0.018493086 -0.09042443 0.20762189 -0.14375223 -0.19975874 0.21269217 -0.121141866 -0.3000709
0.07991221 0.16389607 0.046066705 0.11393437 0.0049713934 0.059228916 -0.37299377 -0.15720914
0.0021199859 0.142395 0.06415525 0.041491516 0.033731192 0.15158585 0.114408545 -0.09163378
0.036155146 0.007583457 0.28581536 0.037870597 -0.05075909 0.29684344 -0.008423671 0.10783007
-0.03067491 0.12574664 0.105306305 0.1042501 0.0142100835 0.009441872 0.038369987 -0.2975924
-0.19521253 0.054052413 -0.21024899 -0.26791412 -0.024990825 -0.11799461 -0.11827017 0.07202617
00000000: 642d 8ebd e84e afbd 7ee9 813d fcbc 2e3d
00000010: b578 43bd b9cc 0bbd 5973 e53c 2575 0cbc
00000020: fbb5 c4bd e6fa d43d e507 473e bf9e 003e
00000030: c714 563e b101 6d3d f674 a03c 11e2 c43d
00000040: 465a f6bd 79f8 1abd 0e77 f63c 45fd c03d
00000050: 6583 6cbd d251 15bd 33c2 583d 6e52 63be
00000060: 6d4f 42be 4b6c 33be 95eb 15bd 847f 503c
00000070: 305b cfbd dbfc 163d 7a75 2bbd d2db 05bd
00000080: be93 063e e1a8 9e3d dc60 cc3b bf01 2f3d
00000090: 2d8d a6bd ea9d d23c a3b0 1ebe 39c1 42be
000000a0: d6be 9f3c 6c0d 36be a99b febc 5096 02be
000000b0: 863f e7bc 37e9 443e 739a 693e 82f6 053e
000000c0: aec8 4c3e 7b6a 113e 10f5 0a3d d152 213e
000000d0: f304 1c3e be46 26bd e439 193e ecf3 833d
000000e0: 9eb5 0b3d d124 943d dca3 a9bd 0857 993c
000000f0: 43b0 2fbc 9270 59be b2c1 04be 8e60 5cbe
00000100: 960b 3fbd b687 3fbe 48ce 04bb 7aac a83d
00000110: b0cb cdbc b3cb 233e a831 3e3e a3d3 903d
00000120: 16ae e6bd 14b1 1dbe 28f0 0f3a 814c bd3d
00000130: 9562 abbc 40d8 c43b 1625 aabd e26b 1abd
00000140: 4a48 88bd ab4c 3c3e ad7a 6f3d e69e 73bd
00000150: a017 5f3d 253a 1d3d db80 a2bd 6339 2cbc
00000160: 1776 4ebc 4df5 35be cd50 30be 171e d2bd
00000170: d6b9 85be a214 8cbe 1011 8abd c454 c2be
00000180: 41b9 6fbe f879 84be 2315 bbbe 94fd 063e
00000190: 2e9c a03c 195c c5bc 0f97 2d3d 2343 163e
000001a0: b01f 573d 144f 513d f4d6 953c 948a d6bb
000001b0: 9616 a83d c13b 1b3e 9849 2ebc f2d5 fcbc
000001c0: a3c9 edbd d22d fbbd e283 a73b 6880 f9bc
000001d0: ad3d af3d ca39 2bbe 7f20 2dbe e0d8 78be
000001e0: a01b 273e ff74 0fbd e29b 143d 48f1 223e
000001f0: 143b 043e 88df 143e 7633 473d 9350 103d
00000200: fc37 0ebe e9dd ebbd 3aea 093d c1d7 a6bd
00000210: 93e2 14be cf72 ebbd e271 4cbe f763 2c3e
00000220: 6eac 883d 2554 863d 32dc d43d 5665 f43d
00000230: 3178 2ebd cf85 4ebc 0914 a33d c838 903d
00000240: 85e8 b9bd 07a1 fcbd 7807 c33c b074 813d
00000250: 0b28 333d c374 b83d 847b b3bd 3b2a ed3c
00000260: 70fe 46bd 21af 313d 9049 113e 0e2a 3cbe
00000270: e112 383e 4249 293c 4fa4 4ebe 8e1e db3d
00000280: 2030 903e 9952 8e3e 762d 8ebe 4537 f3bc
00000290: 53ad 8139 546c d8bd f99b 283e 6292 003e
000002a0: 4491 833d e33c 6e3e 05e1 8c3e e41c f53d
000002b0: 8f94 793e 33d3 453e da70 d9bb aafe 28bd
000002c0: c381 e63d 02e0 31be 3bdf 263c 4013 603d
000002d0: 382c a43b 23d4 293d 81a9 f63c 9194 9d3d
000002e0: b611 1b3d ac97 823d d706 81be 7a3a e2bd
000002f0: 64a7 6d3d f7d8 493e fcd5 16b8 10c8 853d
00000300: 6385 1f3e 8be8 e5bd 0654 4d3a 70f4 983a
00000310: 623f d7bc d382 163e e986 0b3e ad0e 6a3e
00000320: 10ac a7bd 5bcc 613d 52d5 1dbd 1c74 c3bc
00000330: 6180 8fbd 7104 983d d850 233e d09a 47bd
00000340: d07e 973c 7230 b9bd d59a 543e c933 13be
00000350: 8e8d 4cbe facb 593e 3a19 f8bd e5a2 99be
00000360: 03a9 a33d 5fd4 273e 71b0 3c3d 6c56 e93d
00000370: 12e7 a23b 059a 723d 0af9 bebe 6ffb 20be
00000380: 76ef 0a3b ffcf 113e d463 833d 02f3 293d
00000390: b829 0a3d 5239 1b3e 074f ea3d 7eaa bbbd
000003a0: 6b17 143d a67e f83b 6456 923e 331e 1b3d
000003b0: c3e8 4fbd ddfb 973e 7003 0abc 03d6 dc3d
000003c0: f349 fbbc bac3 003e d5aa d73d 1481 d53d
000003d0: 69d1 683c 15b2 1a3c d929 1d3d 085e 98be
000003e0: cbe5 47be 1066 5d3d 834b 57be 0a2c 89be
000003f0: 8fb9 ccbc 28a7 f1bd a237 f2bd 7582 933d

bias f4 [5]
-0.08202049 0.124902755 -0.09995675 -0.060393013 -0.065467134
00000000: 5cfa a7bd 04cd ff3d 20b6 ccbd aa5e 77bd
00000010: a213 86bd

weight f4 [50, 980]
-0.035349034 -0.020417977 -0.03919584 -0.0014627121 -0.033849724 -0.08550562 -0.092706986 -0.05816178
0.0077211033 -0.037274793 -0.022941565 -0.06994368 -0.09417189 -0.062386375 0.009809959 0.00805349
-0.05275757 -0.05327959 -0.100140296 -0.098293014 -0.066304155 -0.075887926 -0.035445657 -0.043255184
-0.0665432 -0.049716737 -0.06303232 -0.028022736 -0.055365156 -0.07901289 -0.021470523 -0.048795614
-0.07471484 -0.058309004 -0.119536966 -0.11031914 -0.10149008 -0.082556225 -0.03148791 0.006745938
0.0036862644 -0.049182795 -0.033530224 -0.051194593 -0.05972236 -0.044958968 -0.059985932 -0.10667552
-0.12517886 -0.09569652 -0.08274552 -0.063446805 -0.0754893 0.022451969 0.017928295 -0.03838225
-0.04425814 -0.0009116344 -0.0766817 -0.05663439 -0.087619975 -0.063284844 -0.11728788 -0.104100555
-0.05715719 -0.0570507 -0.045713786 -0.08307217 -0.0019453003 -0.041043144 -0.06208288 -0.035267033
-0.07628707 -0.036176074 -0.021532657 -0.09489533 -0.100755736 -0.10517286 -0.006123853 -0.060844272
-0.053758275 -0.11734412 0.030269448 0.0099946065 -0.06324438 -0.10129771 -0.07126541 -0.069746226
-0.03930436 -0.07569379 -0.06414989 -0.10305562 -0.016215459 -0.052731216 -0.049696892 -0.079455145
-0.056418233 -0.02575375 -0.063967824 -0.09697723 -0.06426533 -0.042904746 -0.059731033 -0.08766411
-0.07836028 -0.08246046 -0.030497083 -0.059944436 -0.02391301 -0.093756504 -0.023032138 -0.00887325
-0.029686404 -0.03485703 -0.042153437 -0.029062778 -0.08075799 -0.054856334 -0.052448206 -0.032112826
0.00824671 -0.10623447 -0.09639177 -0.09263453 -0.058696177 -0.03271531 0.05556502 -0.0047743917
-0.10374549 -0.06090592 -0.062413383 -0.08343189 -0.061939467 -0.05746742 -0.010220458 -0.046964727
-0.045455422 -0.07274011 -0.09876685 -0.0049297977 0.07102536 0.047099885 -0.05646476 -0.071893714
-0.094106704 -0.091654345 -0.056827787 -0.035842486 -0.013158452 -0.0727119 -0.033224016 -0.04702304
-0.07139849 0.026772596 0.040561184 0.06330491 -0.067447394 -0.050439224 0.01682785 -0.025585286
-0.016095858 -0.04835757 0.034229178 0.026758704 0.017476087 -0.049006235 -0.009983025 0.09181725
0.07402261 0.06122719 -0.07192934 0.022420023 -0.020739323 -0.025127327 -0.06291939 -0.048625827
-0.021221336 -0.018492443 -0.023760801 0.008497269 0.042165156 0.0051582376 0.051061112 0.05114218
-0.0618281 -0.06532512 0.0044762096 -0.05414535 -0.06995086 -0.08547568 0.00827376 -0.04857656
-0.040607374 -0.04520268 -0.017798249 -0.038536467 -0.0651949 -0.01535695 -0.029614316 -0.026781326
-0.012483232 -0.017702645 -0.005512846 0.029117143 -0.036857944 -0.040357627 -0.05846615 -0.05139755
-0.03048623 -0.058870204 -0.011650436 0.008006699 0.046306364 0.06025698 0.0011663372 -0.036106613
-0.03475309 0.007306399 -0.036861822 -0.067055106 -0.07018381 -0.032200925 -0.03970365 -0.030690337
-0.06371514 -0.042640027 0.024941584 0.0048628123 -0.07594 -0.06631918 -0.027767414 -0.02462212
0.020520974 -0.05331989 -0.024479084 -0.06049438 -0.040125813 -0.0508811 -0.06274335 -0.061078843
-0.0063915118 -0.06435235 -0.046805374 -0.03167635 -0.02218987 -0.08411529 -0.07687475 -0.051344078
-0.036432467 -0.028632754 -0.020482153 -0.07966185 -0.02338599 -0.03129228 -0.0030521343 -0.050786283
00000000: 26ca 10bd 9a43 a7bc d18b 20bd 79b8 bfba
00000010: 02a6 0abd 921d afbd 29dd bdbd 0c3b 6ebd
00000020: 4f01 fd3b 74ad 18bd f3ef bbbc a23e 8fbd
00000030: 31dd c0bd db88 7fbd f3b9 203c c9f2 033c
00000040: 5218 58bd b33b 5abd 5b16 cdbd d94d c9bd
00000050: 79ca 87bd 216b 9bbd 772f 11bd 592c 31bd
00000060: cd47 88bd c7a3 4bbd 1717 81bd f08f e5bc
00000070: 93c6 62bd 83d1 a1bd f3e2 afbc e9dd 47bd
00000080: 1804 99bd 6cd5 6ebd cccf f4bd 00ef e1bd
00000090: 08da cfbd 3d13 a9bd 77f9 00bd 080d dd3b
000000a0: 4195 713b e673 49bd fd56 09bd 6cb1 51bd
000000b0: 6f9f 74bd e526 38bd cfb3 75bd b278 dabd
000000c0: e32e 00be 89fc c3bd 7c76 a9bd 66f0 81bd
000000d0: 229a 9abd 31ed b73c 5cde 923c b536 1dbd
000000e0: 0648 35bd c0fa 6eba 4c0b 9dbd 76f9 67bd
000000f0: 1a72 b3bd 7c9b 81bd a134 f0bd ac32 d5bd
00000100: a81d 6abd ffad 69bd 613e 3bbd be21 aabd
00000110: 72f9 feba db1c 28bd 9e4a 7ebd 2a74 10bd
00000120: 653c 9cbd 5d2d 14bd 4165 b0bc 7c58 c2bd
00000130: 0659 cebd de64 d7bd 9aaa c8bb d837 79bd
00000140: a331 5cbd 1d52 f0bd a2f7 f73c 6bc0 233c
00000150: 4586 81bd 2c75 cfbd 99f3 91bd 1cd7 8ebd
00000160: 9cfd 20bd 5905 9bbd 0461 83bd d30e d3bd
00000170: 48d6 84bc b0fc 57bd f88e 4bbd 61b9 a2bd
00000180: ce16 67bd 87f9 d2bc 9001 83bd ff9b c6bd
00000190: 8b9d 83bd e3bc 2fbd 87a8 74bd 3e89 b3bd
000001a0: 5b7b a0bd 08e1 a8bd 05d5 f9bc 4c88 75bd
000001b0: 37e5 c3bc 6903 c0bd e5ad bcbc 1c61 11bc
000001c0: e730 f3bc 3fc6 0ebd 15a9 2cbd 1015 eebc
000001d0: 7264 a5bd 09b1 60bd eed3 56bd bd88 03bd
000001e0: 351d 073c 7591 d9bd 0c69 c5bd 2cb7 bdbd
000001f0: 676b 70bd 7d00 06bd 2598 633d 8072 9cbb
00000200: 8478 d4bd 7c78 79bd 2da5 7fbd 57de aabd
00000210: 3db4 7dbd f562 6bbd b573 27bc 165e 40bd
00000220: 772f 3abd c4f8 94bd 4646 cabd 248a a1bb
00000230: be75 913d cfeb 403d 9847 67bd 033d 93bd
00000240: 04bb c0bd 46b5 bbbd 41c4 68bd 92cf 12bd
00000250: 8c96 57bc fae9 94bd e815 08bd 3b9b 40bd
00000260: 5f39 92bd 3452 db3c 7c23 263d 01a6 813d
00000270: dc21 8abd 5c99 4ebd 8fda 893c 3c98 d1bc
00000280: 76db 83bc 9612 46bd e533 0c3d 1235 db3c
00000290: 032a 8f3c c3ba 48bd d78f 23bc af0a bc3d
000002a0: 2b99 973d 5dc9 7a3d b14f 93bd 32aa b73c
000002b0: 83e5 a9bc d3d7 cdbc e2db 80bd e02b 47bd
000002c0: 5ed8 adbc 777d 97bc 03a6 c2bc 2138 0b3c
000002d0: 5fb5 2c3d 6f06 a93b 7525 513d 767a 513d
000002e0: 763f 7dbd 2dc9 85bd 2bad 923b 84c7 5dbd
000002f0: 6642 8fbd e00d afbd aa8e 073c 37f8 46bd
00000300: eb53 26bd 7226 39bd a2cd 91bc 6ad8 1dbd
00000310: e784 85bd b89b 7bbc b999 f2bc 8364 dbbc
00000320: 7886 4cbc 2305 91bc 1ba5 b4bb 1387 ee3c
00000330: 5bf8 16bd 0a4e 25bd 347a 6fbd 3d86 52bd
00000340: 42be f9bc e221 71bd 78e1 3ebc 882e 033c
00000350: beab 3d3d 06d0 763d c8df 983a 87e4 13bd
00000360: 4259 0ebd 846a ef3b 6cfc 16bd 3054 89bd
00000370: 88bc 8fbd 1ee5 03bd 4ba0 22bd 4d6a fbbc
00000380: 157d 82bd 4fa7 2ebd 4b52 cc3c 3a58 9f3b
00000390: 6e86 9bbd 5ad2 87bd 7d78 e3bc 54b4 c9bc
000003a0: 9a1b a83c f565 5abd 5c88 c8bc f4c8 77bd
000003b0: f75a 24bd b368 50bd 967f 80bd cf2d 7abd
000003c0: e36f d1bb 2acb 83bd feb6 3fbd 0fbf 01bd
000003d0: 88c7 b5bc a344 acbd 8270 9dbd 2b4e 52bd
000003e0: 363a 15bd 3d8f eabc 30ca a7bc c125 a3bd
000003f0: fa93 bfbc 552c 00bd 5106 48bb 4705 50bd

bias f4 [50]
-0.044292394 -0.043932144 -0.019761106 -0.14849663 0.11946397 -0.025417963 0.014291925 -0.04803916
-0.07097987 -0.028697845 -0.019077135 -0.10469287 0.14845182 -0.11061057 0.3853014 -0.0378946
-0.03332138 0.17041454 0.24463348 -0.031665534 0.22743325 0.37432554 -0.2203325 0.012849268
0.25982064 -0.069307126 -0.015969947 -0.011002074 -0.043374006 -0.04476493 -0.06443528 -0.15711895
-0.009050578 -0.23328139 -0.056372534 -0.13924082 -0.05617501 0.28229353 0.11387857 -0.036291942
-0.015464099 -0.017494245 0.000119996235 -0.046129923 0.008014637 -0.22541021 -0.050702486 -0.02840212
-0.16859473 -0.028998215
00000000: f16b 35bd 31f2 33bd 0be2 a1bc 800f 18be
00000010: 87a9 f43d 5539 d0bc ae28 6a3c b6c4 44bd
00000020: e55d 91bd be17 ebbc a747 9cbc 3769 d6bd
00000030: c103 183e cb87 e2bd 3a46 c53e 5e37 1bbd
00000040: 007c 08bd 2681 2e3e 3381 7a3e b8b3 01bd
00000050: 43e4 683e 99a7 bf3e d89e 61be bc85 523c
00000060: 3607 853e e5f0 8dbd 68d3 82bc 0b42 34bc
00000070: f1a8 31bd 6e5b 37bd a5f6 83bd cae3 20be
00000080: e048 14bc 51e1 6ebe e3e6 66bd 2595 0ebe
00000090: c417 66bd c788 903e 2b39 e93d dca6 14bd
000000a0: 225d 7dbc 1750 8fbc 7da6 fb38 bbf2 3cbd
000000b0: d34f 033c efd1 66be 69ad 4fbd 90ab e8bc
000000c0: 19a4 2cbe aa8d edbc

weight f4 [30, 50]
-0.01963812 -0.07298905 0.035540737 -0.10784447 -0.12511453 0.13954355 -0.12566471 -0.04090253
0.0072738226 -0.13103293 0.048471518 -0.056577813 -0.060517497 -0.13729033 0.106377795 0.17007846
0.14862029 -0.17631204 0.00266248 0.1305938 -0.052163936 0.11225336 0.032351803 -0.10365769
-0.1270878 0.12276754 -0.04342324 -0.09960892 0.059674077 -0.012995295 -0.013253624 -0.08604959
0.030118193 -0.042819604 -0.11113457 -0.030417033 -0.007958846 -0.10531495 0.043764904 -0.1369102
-0.008116161 0.03734321 -0.027511925 -0.09894551 -0.023437873 0.013520435 0.0120567 -0.028134096
0.047061283 0.046907496 -0.101637386 -0.04578317 -0.0555783 0.022254642 -0.16051537 0.14773394
0.02588389 0.40664575 0.06138857 0.031727638 0.04293244 -0.03232986 -0.040139977 -0.057855777
0.08761803 0.09652909 -0.024616674 0.03859582 -0.18268971 -0.11602066 -0.13183197 -0.20436937
-0.0008949302 -0.07475024 0.09388872 0.032634176 0.04509539 -0.019784763 0.0059498716 -0.02602725
-0.108501606 0.10105042 -0.04310258 0.07354983 -0.075712256 -0.106600665 -0.08953414 -0.09772408
-0.07607741 -0.08834611 0.11832082 0.073760584 -0.051153865 0.21381295 -0.0568402 0.09019941
-0.12039039 0.15311229 0.11687697 0.045302026 0.052231293 -0.029047929 0.11829634 0.058167867
0.12569548 0.12691154 -0.11496994 -0.17332628 0.023532024 0.10082203 0.044678908 -0.042462762
0.20630693 0.08028254 0.062029794 -0.09763224 0.09048116 0.047748663 0.018926993 0.11796707
0.14734831 0.14525765 0.17816047 -0.049356353 0.12836897 -0.004311655 0.09134847 0.08864411
-0.05525479 -0.114066444 0.075597435 -0.15955332 0.0012495947 0.008113866 -0.086851254 0.008219133
-0.070632376 0.021094238 0.23506643 0.031821962 0.039330002 -0.07437653 0.05495638 0.06737343
-0.009878804 -0.033927284 0.031237992 0.025638947 -0.1354003 -0.07020053 0.00092115067 -0.00442065
-0.1335391 0.025758557 -0.05990698 0.08737699 -0.05178495 -0.024038652 0.021755092 0.029639363
-0.096025005 -0.04988298 0.06557327 -0.050621014 0.14957768 0.08776166 0.0033756495 -0.0015548941
0.08035785 -0.09143339 0.15514585 0.19365223 -0.194205 0.037088975 0.033929646 -0.113372065
-0.11601628 -0.09207113 0.0263026 -0.07885438 0.10914571 0.059435826 0.120805606 -0.03268073
0.06791382 -0.013961598 -0.0032855123 -0.0056090397 0.09320538 0.07142388 -0.055224244 0.08697382
0.03499487 0.12152602 -0.05304485 -0.10487397 0.123905785 -0.004872332 -0.112969205 0.015084192
0.06780681 0.059775986 -0.04150127 -0.13351928 -0.021070097 -0.012676828 0.018631615 -0.23214261
0.13535064 -0.12181988 -0.05254495 -0.067970544 0.18470779 -0.15814666 0.13430236 0.103246816
0.050431766 0.16881178 -0.026249047 -0.010097011 0.1748599 0.040895566 0.0046898206 0.0803812
0.04082942 0.088756695 0.12295327 -0.050250337 0.03993284 0.113628685 -0.02280655 -0.10110269
0.07186198 -0.01648335 0.05634185 -0.012595552 0.11581891 0.15525225 -0.01395371 0.034712855
0.109231986 0.060061656 -0.09286449 0.10443508 -0.11417543 -0.0725117 -0.012948096 -0.07722721
0.024194963 0.005374147 0.15683717 -0.04705809 0.11805006 0.09108789 -0.21661878 0.11307978
00000000: 1fe0 a0bc 487b 95bd 2a93 113d 90dd dcbd
00000010: 061e 00be 81e4 0e3e 40ae 00be 6989 27bd
00000020: 3f59 ee3b 7f2d 06be 128a 463d 23be 67bd
00000030: 32e1 77bd d695 0cbe 9adc d93d 0c29 2e3e
00000040: eb2f 183e 258b 34be 017d 2e3b 62ba 053e
00000050: daa9 55bd 17e5 e53d 5383 043d 7c4a d4bd
00000060: 4e23 02be 8c6d fb3d 91dc 31bd c3ff cbbd
00000070: ce6c 743d 38ea 54bc ba25 59bc c43a b0bd
00000080: 6eba f63c 9c63 2fbd 859a e3bd 242d f9bc
00000090: d265 02bc 5daf d7bd d442 333d 3032 0cbe
000000a0: a6f9 04bc 32f5 183d b060 e1bc f2a3 cabd
000000b0: c800 c0bc d184 5d3c 7789 453c 7a79 e6bc
000000c0: 55c3 403d 1322 403d 4327 d0bd 2287 3bbd
000000d0: 12a6 63bd 5e4f b63c 245e 24be 9147 173e
000000e0: 740a d43c df33 d03e 9572 7b3d d7f4 013d
000000f0: edd9 2f3d 516c 04bd d169 24bd 2efa 6cbd
00000100: 1571 b33d 0bb1 c53d e8a8 c9bc a716 1e3d
00000110: 0313 3bbe 3d9c edbd f6fe 06be 3446 51be
00000120: c099 6aba a716 99bd bb48 c03d 6aab 053d
00000130: f2b5 383d a813 a2bc 24f7 c23b 1937 d5bc
00000140: 1736 debd 86f3 ce3d 558c 30bd 4ba1 963d
00000150: 070f 9bbd 7351 dabd ad5d b7bd 9023 c8bd
00000160: 79ce 9bbd ceee b4bd 3052 f23d ca0f 973d
00000170: b786 51bd c8f1 5a3e 45d1 68bd 78ba b83d
00000180: 3d8f f6bd 78c9 1c3e 315d ef3d 9e8e 393d
00000190: 7bf0 553d ecf5 edbc 5a45 f23d 6e41 6e3d
000001a0: 51b6 003e 19f5 013e 5c75 ebbd 727c 31be
000001b0: 3bc6 c03c c87b ce3d 3b01 373d 6fed 2dbd
000001c0: 2042 533e 2c6b a43d f412 7e3d 69f3 c7bd
000001d0: 304e b93d 1a94 433d c80c 9b3c b898 f13d
000001e0: 7ae2 163e 6cbe 143e b36f 363e e329 4abd
000001f0: 2873 033e c948 8dbb e814 bb3d 0b8b b53d
00000200: d952 62bd ab9b e9bd d4d2 9a3d f261 23be
00000210: 71c9 a33a 05f0 043c 12df b1bd 8ba9 063c
00000220: b5a7 90bd d3cd ac3c 41b5 703e bf57 023d
00000230: 7f18 213d b952 98bd f119 613d 15fb 893d
00000240: b5da 21bc 56f7 0abd d1e6 ff3c c508 d23c
00000250: 60a6 0abe 4cc5 8fbd 6079 713a 1adb 90bb
00000260: 79be 08be 9c03 d33c 0561 75bd b5f2 b23d
00000270: 751c 54bd b5ec c4bc bc37 b23c 40ce f23c
00000280: c2a8 c4bd 1852 4cbd 474b 863d fb57 4fbd
00000290: e42a 193e 63bc b33d 003a 5d3b 97cd cbba
000002a0: a892 a43d 6e41 bbbd 8ede 1e3e c54c 463e
000002b0: addd 46be 9cea 173d d0f9 0a3d 9d2f e8bd
000002c0: f299 edbd ca8f bcbd 8d78 d73c 687e a1bd
000002d0: c987 df3d fb72 733d ee68 f73d 3bdc 05bd
000002e0: 6716 8b3d 30bf 64bc c051 57bb 09cc b7bb
000002f0: 76e2 be3d af46 923d d132 62bd 551f b23d
00000300: c856 0f3d a2e2 f83d 8e45 59bd 2ac8 d6bd
00000310: 51c2 fd3d 15a8 9fbb 665c e7bd b023 773c
00000320: 4cde 8a3d aad7 743d 3cfd 29bd 47b9 08be
00000330: 329b acbc 78b2 4fbc 54a1 983c cbb6 6dbe
00000340: 5c99 0a3e b47c f9bd 6039 57bd 2434 8bbd
00000350: 0a24 3d3e 33f1 21be 8f86 093e 1173 d33d
00000360: 8a91 4e3d ffdc 2c3e 3e08 d7bc ef6d 25bc
00000370: 790e 333e 1c82 273d 11ad 993b e69e a43d
00000380: c03c 273d 12c6 b53d edce fb3d 4cd3 4dbd
00000390: 9e90 233d 28b6 e83d cdd4 babc ed0e cfbd
000003a0: 602c 933d 1708 87bc b6c6 663d 935d 4ebc
000003b0: 7732 ed3d 72fa 1e3e 1a9e 64bc 112f 0e3d
000003c0: 05b5 df3d 3603 763d bd2f bebd 0fe2 d53d
000003d0: cfd4 e9bd 0481 94bd 4024 54bc 4d29 9ebd
000003e0: 8434 c63c 9d19 b03b ec99 203e fcbf 40bd
000003f0: 3bc4 f13d 4a8c ba3d 50d1 5dbe 5f96 e73d

bias f4 [30]
0.14123885 0.07255249 0.22298019 0.16988078 0.22952406 0.014168601 0.24554351 -0.18341832
0.37579316 -0.026518159 -0.024672627 0.07831717 -0.12213095 0.40460563 0.14746343 0.43050256
-0.117252946 0.10234085 0.33241206 -0.1382648 -0.23279981 0.35114992 -0.053422883 0.07267647
0.034681715 0.09823323 0.16674088 -0.16505514 -0.06949451 0.02176174
00000000: eba0 103e 6696 943d eb54 643e 3af5 2d3e
00000010: 5b08 6b3e 6b23 683c c26f 7b3e 03d2 3bbe
00000020: f667 c03e 9c3c d9bc 401e cabc c164 a03d
00000030: cb1f fabd 7828 cf3e a700 173e d56a dc3e
00000040: 5022 f0bd 1498 d13d ea31 aa3e 4a95 0dbe
00000050: 1363 6ebe ecc9 b33e f4d1 5abd 67d7 943d
00000060: 6a0e 0e3d 812e c93d 1fbe 2a3e 3704 29be
00000070: 2353 8ebd ad45 b23c

weight f4 [2, 30]
-0.021003649 -0.01528481 -0.057364415 -0.13854644 -0.18907602 0.12472605 -0.16059408 -0.024137473
-0.23327856 0.032843154 0.20408034 -0.15637231 0.13466737 -0.23580395 -0.23519263 -0.29938218
0.017095828 0.24349402 -0.18369919 0.27237993 -0.11942477 -0.13259862 0.045838706 -0.103224486
0.16296206 0.122529864 -0.10033557 -0.118272305 0.099443786 0.18735178 0.014195893 -0.25977102
0.21876396 0.12989582 0.13822825 -0.035147164 0.20834246 -0.025100894 0.34820712 -0.07119329
-0.157217 0.15206864 0.13268726 0.21048547 0.089380644 0.33745006 0.009381634 -0.13792495
0.06767088 -0.0457447 -0.09000349 0.2018526 -0.017661776 0.19775906 0.1466179 -0.09037295
0.12666096 -0.09314377 0.08283146 -0.11273662
00000000: d80f acbc 246d 7abc f3f6 6abd 1edf 0dbe
00000010: 259d 41be 5f70 ff3d c672 24be f3bb c5bc
00000020: 93e0 6ebe 8b86 063d 70fa 503e 1020 20be
00000030: 3ee6 093e 9776 71be 56d6 70be 9f48 99be
00000040: 8d0c 8c3c 7f56 793e a41b 3cbe 6275 8b3e
00000050: f994 f4bd efc7 07be 5ec1 3b3d 5c67 d3bd
00000060: 87df 263e f0f0 fa3d bc7c cdbd c038 f2bd
00000070: 2fa9 cb3d 25d9 3f3e e495 683c b500 85be
00000080: a903 603e 6903 053e b58b 0d3e 79f6 0fbd
00000090: ba57 553e 64a0 cdbc 3448 b23e cacd 91bd
000000a0: 7efd 20be e2b7 1b3e 2bdf 073e 8189 573e
000000b0: 330d b73d 41c6 ac3e 6db5 193c 333c 0dbe
000000c0: 0897 8a3d cb5e 3bbd c053 b8bd 73b2 4e3e
000000d0: 6eaf 90bc 5a81 4a3e 0123 163e 7415 b9bd
000000e0: 69b3 013e 29c2 bebd 8aa3 a93d 75e2 e6bd

bias f4 [2]
-0.105821 0.13231541
00000000: aeb8 d8bd b17d 073e
